{"class_name": "Model", "config": {"name": "model_4", "layers": [{"name": "input_7", "class_name": "InputLayer", "config": {"batch_input_shape": [null, 75, 75, 1], "dtype": "float32", "sparse": false, "name": "input_7"}, "inbound_nodes": []}, {"name": "input_8", "class_name": "InputLayer", "config": {"batch_input_shape": [null, 75, 75, 1], "dtype": "float32", "sparse": false, "name": "input_8"}, "inbound_nodes": []}, {"name": "sequential_5", "class_name": "Sequential", "config": {"name": "sequential_5", "layers": [{"class_name": "Conv2D", "config": {"name": "Conv1", "trainable": true, "batch_input_shape": [null, 75, 75, 1], "dtype": "float32", "filters": 64, "kernel_size": [10, 10], "strides": [1, 1], "padding": "valid", "data_format": "channels_last", "dilation_rate": [1, 1], "activation": "relu", "use_bias": true, "kernel_initializer": {"class_name": "VarianceScaling", "config": {"scale": 1.0, "mode": "fan_avg", "distribution": "uniform", "seed": null}}, "bias_initializer": {"class_name": "Zeros", "config": {}}, "kernel_regularizer": {"class_name": "L1L2", "config": {"l1": 0.0, "l2": 0.009999999776482582}}, "bias_regularizer": null, "activity_regularizer": null, "kernel_constraint": null, "bias_constraint": null}}, {"class_name": "MaxPooling2D", "config": {"name": "max_pooling2d_12", "trainable": true, "pool_size": [2, 2], "padding": "valid", "strides": [2, 2], "data_format": "channels_last"}}, {"class_name": "Conv2D", "config": {"name": "Conv2", "trainable": true, "filters": 128, "kernel_size": [7, 7], "strides": [1, 1], "padding": "valid", "data_format": "channels_last", "dilation_rate": [1, 1], "activation": "relu", "use_bias": true, "kernel_initializer": {"class_name": "VarianceScaling", "config": {"scale": 1.0, "mode": "fan_avg", "distribution": "uniform", "seed": null}}, "bias_initializer": {"class_name": "Zeros", "config": {}}, "kernel_regularizer": {"class_name": "L1L2", "config": {"l1": 0.0, "l2": 0.009999999776482582}}, "bias_regularizer": null, "activity_regularizer": null, "kernel_constraint": null, "bias_constraint": null}}, {"class_name": "MaxPooling2D", "config": {"name": "max_pooling2d_13", "trainable": true, "pool_size": [2, 2], "padding": "valid", "strides": [2, 2], "data_format": "channels_last"}}, {"class_name": "Conv2D", "config": {"name": "Conv3", "trainable": true, "filters": 128, "kernel_size": [4, 4], "strides": [1, 1], "padding": "valid", "data_format": "channels_last", "dilation_rate": [1, 1], "activation": "relu", "use_bias": true, "kernel_initializer": {"class_name": "VarianceScaling", "config": {"scale": 1.0, "mode": "fan_avg", "distribution": "uniform", "seed": null}}, "bias_initializer": {"class_name": "Zeros", "config": {}}, "kernel_regularizer": {"class_name": "L1L2", "config": {"l1": 0.0, "l2": 0.009999999776482582}}, "bias_regularizer": null, "activity_regularizer": null, "kernel_constraint": null, "bias_constraint": null}}, {"class_name": "MaxPooling2D", "config": {"name": "max_pooling2d_14", "trainable": true, "pool_size": [2, 2], "padding": "valid", "strides": [2, 2], "data_format": "channels_last"}}, {"class_name": "Conv2D", "config": {"name": "Conv4", "trainable": true, "filters": 256, "kernel_size": [4, 4], "strides": [1, 1], "padding": "valid", "data_format": "channels_last", "dilation_rate": [1, 1], "activation": "relu", "use_bias": true, "kernel_initializer": {"class_name": "VarianceScaling", "config": {"scale": 1.0, "mode": "fan_avg", "distribution": "uniform", "seed": null}}, "bias_initializer": {"class_name": "Zeros", "config": {}}, "kernel_regularizer": {"class_name": "L1L2", "config": {"l1": 0.0, "l2": 0.009999999776482582}}, "bias_regularizer": null, "activity_regularizer": null, "kernel_constraint": null, "bias_constraint": null}}, {"class_name": "Flatten", "config": {"name": "flatten_5", "trainable": true, "data_format": "channels_last"}}, {"class_name": "Dense", "config": {"name": "Dense1", "trainable": true, "units": 2048, "activation": "sigmoid", "use_bias": true, "kernel_initializer": {"class_name": "VarianceScaling", "config": {"scale": 1.0, "mode": "fan_avg", "distribution": "uniform", "seed": null}}, "bias_initializer": {"class_name": "Zeros", "config": {}}, "kernel_regularizer": {"class_name": "L1L2", "config": {"l1": 0.0, "l2": 9.999999747378752e-05}}, "bias_regularizer": null, "activity_regularizer": null, "kernel_constraint": null, "bias_constraint": null}}]}, "inbound_nodes": [[["input_7", 0, 0, {}]], [["input_8", 0, 0, {}]]]}, {"name": "lambda_4", "class_name": "Lambda", "config": {"name": "lambda_4", "trainable": true, "function": ["4wEAAAAAAAAAAQAAAAQAAABDAAAAcxYAAAB0AGoBfABkARkAfABkAhkAGACDAVMAKQNO6QAAAADp\nAQAAACkC2gFL2gNhYnMpAdoHdGVuc29yc6kAcgYAAAD6HzxpcHl0aG9uLWlucHV0LTE4LTZjZTc4\nMGI0MjY0NT7aCDxsYW1iZGE+QgAAAHMAAAAA\n", null, null], "function_type": "lambda", "output_shape": null, "output_shape_type": "raw", "arguments": {}}, "inbound_nodes": [[["sequential_5", 1, 0, {}], ["sequential_5", 2, 0, {}]]]}, {"name": "dense_6", "class_name": "Dense", "config": {"name": "dense_6", "trainable": true, "units": 1, "activation": "sigmoid", "use_bias": true, "kernel_initializer": {"class_name": "VarianceScaling", "config": {"scale": 1.0, "mode": "fan_avg", "distribution": "uniform", "seed": null}}, "bias_initializer": {"class_name": "Zeros", "config": {}}, "kernel_regularizer": null, "bias_regularizer": null, "activity_regularizer": null, "kernel_constraint": null, "bias_constraint": null}, "inbound_nodes": [[["lambda_4", 0, 0, {}]]]}], "input_layers": [["input_7", 0, 0], ["input_8", 0, 0]], "output_layers": [["dense_6", 0, 0]]}, "keras_version": "2.2.4", "backend": "tensorflow"}