{"class_name": "Model", "config": {"name": "model_19", "layers": [{"name": "input_30", "class_name": "InputLayer", "config": {"batch_input_shape": [null, 224, 224, 1], "dtype": "float32", "sparse": false, "name": "input_30"}, "inbound_nodes": []}, {"name": "input_31", "class_name": "InputLayer", "config": {"batch_input_shape": [null, 224, 224, 1], "dtype": "float32", "sparse": false, "name": "input_31"}, "inbound_nodes": []}, {"name": "inception_v3", "class_name": "Model", "config": {"name": "inception_v3", "layers": [{"name": "input_29", "class_name": "InputLayer", "config": {"batch_input_shape": [null, 224, 224, 1], "dtype": "float32", "sparse": false, "name": "input_29"}, "inbound_nodes": []}, {"name": "concatenate_26", "class_name": "Concatenate", "config": {"name": "concatenate_26", "trainable": false, "axis": -1}, "inbound_nodes": [[["input_29", 0, 0, {}], ["input_29", 0, 0, {}], ["input_29", 0, 0, {}]]]}, {"name": "conv2d_753", "class_name": "Conv2D", "config": {"name": "conv2d_753", "trainable": false, "filters": 32, "kernel_size": [3, 3], "strides": [2, 2], "padding": "valid", "data_format": "channels_last", "dilation_rate": [1, 1], "activation": "linear", "use_bias": false, "kernel_initializer": {"class_name": "VarianceScaling", "config": {"scale": 1.0, "mode": "fan_avg", "distribution": "uniform", "seed": null}}, "bias_initializer": {"class_name": "Zeros", "config": {}}, "kernel_regularizer": null, "bias_regularizer": null, "activity_regularizer": null, "kernel_constraint": null, "bias_constraint": null}, "inbound_nodes": [[["concatenate_26", 0, 0, {}]]]}, {"name": "batch_normalization_753", "class_name": "BatchNormalization", "config": {"name": "batch_normalization_753", "trainable": false, "axis": 3, "momentum": 0.99, "epsilon": 0.001, "center": true, "scale": false, "beta_initializer": {"class_name": "Zeros", "config": {}}, "gamma_initializer": {"class_name": "Ones", "config": {}}, "moving_mean_initializer": {"class_name": "Zeros", "config": {}}, "moving_variance_initializer": {"class_name": "Ones", "config": {}}, "beta_regularizer": null, "gamma_regularizer": null, "beta_constraint": null, "gamma_constraint": null}, "inbound_nodes": [[["conv2d_753", 0, 0, {}]]]}, {"name": "activation_753", "class_name": "Activation", "config": {"name": "activation_753", "trainable": false, "activation": "relu"}, "inbound_nodes": [[["batch_normalization_753", 0, 0, {}]]]}, {"name": "conv2d_754", "class_name": "Conv2D", "config": {"name": "conv2d_754", "trainable": false, "filters": 32, "kernel_size": [3, 3], "strides": [1, 1], "padding": "valid", "data_format": "channels_last", "dilation_rate": [1, 1], "activation": "linear", "use_bias": false, "kernel_initializer": {"class_name": "VarianceScaling", "config": {"scale": 1.0, "mode": "fan_avg", "distribution": "uniform", "seed": null}}, "bias_initializer": {"class_name": "Zeros", "config": {}}, "kernel_regularizer": null, "bias_regularizer": null, "activity_regularizer": null, "kernel_constraint": null, "bias_constraint": null}, "inbound_nodes": [[["activation_753", 0, 0, {}]]]}, {"name": "batch_normalization_754", "class_name": "BatchNormalization", "config": {"name": "batch_normalization_754", "trainable": false, "axis": 3, "momentum": 0.99, "epsilon": 0.001, "center": true, "scale": false, "beta_initializer": {"class_name": "Zeros", "config": {}}, "gamma_initializer": {"class_name": "Ones", "config": {}}, "moving_mean_initializer": {"class_name": "Zeros", "config": {}}, "moving_variance_initializer": {"class_name": "Ones", "config": {}}, "beta_regularizer": null, "gamma_regularizer": null, "beta_constraint": null, "gamma_constraint": null}, "inbound_nodes": [[["conv2d_754", 0, 0, {}]]]}, {"name": "activation_754", "class_name": "Activation", "config": {"name": "activation_754", "trainable": false, "activation": "relu"}, "inbound_nodes": [[["batch_normalization_754", 0, 0, {}]]]}, {"name": "conv2d_755", "class_name": "Conv2D", "config": {"name": "conv2d_755", "trainable": false, "filters": 64, "kernel_size": [3, 3], "strides": [1, 1], "padding": "same", "data_format": "channels_last", "dilation_rate": [1, 1], "activation": "linear", "use_bias": false, "kernel_initializer": {"class_name": "VarianceScaling", "config": {"scale": 1.0, "mode": "fan_avg", "distribution": "uniform", "seed": null}}, "bias_initializer": {"class_name": "Zeros", "config": {}}, "kernel_regularizer": null, "bias_regularizer": null, "activity_regularizer": null, "kernel_constraint": null, "bias_constraint": null}, "inbound_nodes": [[["activation_754", 0, 0, {}]]]}, {"name": "batch_normalization_755", "class_name": "BatchNormalization", "config": {"name": "batch_normalization_755", "trainable": false, "axis": 3, "momentum": 0.99, "epsilon": 0.001, "center": true, "scale": false, "beta_initializer": {"class_name": "Zeros", "config": {}}, "gamma_initializer": {"class_name": "Ones", "config": {}}, "moving_mean_initializer": {"class_name": "Zeros", "config": {}}, "moving_variance_initializer": {"class_name": "Ones", "config": {}}, "beta_regularizer": null, "gamma_regularizer": null, "beta_constraint": null, "gamma_constraint": null}, "inbound_nodes": [[["conv2d_755", 0, 0, {}]]]}, {"name": "activation_755", "class_name": "Activation", "config": {"name": "activation_755", "trainable": false, "activation": "relu"}, "inbound_nodes": [[["batch_normalization_755", 0, 0, {}]]]}, {"name": "max_pooling2d_33", "class_name": "MaxPooling2D", "config": {"name": "max_pooling2d_33", "trainable": false, "pool_size": [3, 3], "padding": "valid", "strides": [2, 2], "data_format": "channels_last"}, "inbound_nodes": [[["activation_755", 0, 0, {}]]]}, {"name": "conv2d_756", "class_name": "Conv2D", "config": {"name": "conv2d_756", "trainable": false, "filters": 80, "kernel_size": [1, 1], "strides": [1, 1], "padding": "valid", "data_format": "channels_last", "dilation_rate": [1, 1], "activation": "linear", "use_bias": false, "kernel_initializer": {"class_name": "VarianceScaling", "config": {"scale": 1.0, "mode": "fan_avg", "distribution": "uniform", "seed": null}}, "bias_initializer": {"class_name": "Zeros", "config": {}}, "kernel_regularizer": null, "bias_regularizer": null, "activity_regularizer": null, "kernel_constraint": null, "bias_constraint": null}, "inbound_nodes": [[["max_pooling2d_33", 0, 0, {}]]]}, {"name": "batch_normalization_756", "class_name": "BatchNormalization", "config": {"name": "batch_normalization_756", "trainable": false, "axis": 3, "momentum": 0.99, "epsilon": 0.001, "center": true, "scale": false, "beta_initializer": {"class_name": "Zeros", "config": {}}, "gamma_initializer": {"class_name": "Ones", "config": {}}, "moving_mean_initializer": {"class_name": "Zeros", "config": {}}, "moving_variance_initializer": {"class_name": "Ones", "config": {}}, "beta_regularizer": null, "gamma_regularizer": null, "beta_constraint": null, "gamma_constraint": null}, "inbound_nodes": [[["conv2d_756", 0, 0, {}]]]}, {"name": "activation_756", "class_name": "Activation", "config": {"name": "activation_756", "trainable": false, "activation": "relu"}, "inbound_nodes": [[["batch_normalization_756", 0, 0, {}]]]}, {"name": "conv2d_757", "class_name": "Conv2D", "config": {"name": "conv2d_757", "trainable": false, "filters": 192, "kernel_size": [3, 3], "strides": [1, 1], "padding": "valid", "data_format": "channels_last", "dilation_rate": [1, 1], "activation": "linear", "use_bias": false, "kernel_initializer": {"class_name": "VarianceScaling", "config": {"scale": 1.0, "mode": "fan_avg", "distribution": "uniform", "seed": null}}, "bias_initializer": {"class_name": "Zeros", "config": {}}, "kernel_regularizer": null, "bias_regularizer": null, "activity_regularizer": null, "kernel_constraint": null, "bias_constraint": null}, "inbound_nodes": [[["activation_756", 0, 0, {}]]]}, {"name": "batch_normalization_757", "class_name": "BatchNormalization", "config": {"name": "batch_normalization_757", "trainable": false, "axis": 3, "momentum": 0.99, "epsilon": 0.001, "center": true, "scale": false, "beta_initializer": {"class_name": "Zeros", "config": {}}, "gamma_initializer": {"class_name": "Ones", "config": {}}, "moving_mean_initializer": {"class_name": "Zeros", "config": {}}, "moving_variance_initializer": {"class_name": "Ones", "config": {}}, "beta_regularizer": null, "gamma_regularizer": null, "beta_constraint": null, "gamma_constraint": null}, "inbound_nodes": [[["conv2d_757", 0, 0, {}]]]}, {"name": "activation_757", "class_name": "Activation", "config": {"name": "activation_757", "trainable": false, "activation": "relu"}, "inbound_nodes": [[["batch_normalization_757", 0, 0, {}]]]}, {"name": "max_pooling2d_34", "class_name": "MaxPooling2D", "config": {"name": "max_pooling2d_34", "trainable": false, "pool_size": [3, 3], "padding": "valid", "strides": [2, 2], "data_format": "channels_last"}, "inbound_nodes": [[["activation_757", 0, 0, {}]]]}, {"name": "conv2d_761", "class_name": "Conv2D", "config": {"name": "conv2d_761", "trainable": false, "filters": 64, "kernel_size": [1, 1], "strides": [1, 1], "padding": "same", "data_format": "channels_last", "dilation_rate": [1, 1], "activation": "linear", "use_bias": false, "kernel_initializer": {"class_name": "VarianceScaling", "config": {"scale": 1.0, "mode": "fan_avg", "distribution": "uniform", "seed": null}}, "bias_initializer": {"class_name": "Zeros", "config": {}}, "kernel_regularizer": null, "bias_regularizer": null, "activity_regularizer": null, "kernel_constraint": null, "bias_constraint": null}, "inbound_nodes": [[["max_pooling2d_34", 0, 0, {}]]]}, {"name": "batch_normalization_761", "class_name": "BatchNormalization", "config": {"name": "batch_normalization_761", "trainable": false, "axis": 3, "momentum": 0.99, "epsilon": 0.001, "center": true, "scale": false, "beta_initializer": {"class_name": "Zeros", "config": {}}, "gamma_initializer": {"class_name": "Ones", "config": {}}, "moving_mean_initializer": {"class_name": "Zeros", "config": {}}, "moving_variance_initializer": {"class_name": "Ones", "config": {}}, "beta_regularizer": null, "gamma_regularizer": null, "beta_constraint": null, "gamma_constraint": null}, "inbound_nodes": [[["conv2d_761", 0, 0, {}]]]}, {"name": "activation_761", "class_name": "Activation", "config": {"name": "activation_761", "trainable": false, "activation": "relu"}, "inbound_nodes": [[["batch_normalization_761", 0, 0, {}]]]}, {"name": "conv2d_759", "class_name": "Conv2D", "config": {"name": "conv2d_759", "trainable": false, "filters": 48, "kernel_size": [1, 1], "strides": [1, 1], "padding": "same", "data_format": "channels_last", "dilation_rate": [1, 1], "activation": "linear", "use_bias": false, "kernel_initializer": {"class_name": "VarianceScaling", "config": {"scale": 1.0, "mode": "fan_avg", "distribution": "uniform", "seed": null}}, "bias_initializer": {"class_name": "Zeros", "config": {}}, "kernel_regularizer": null, "bias_regularizer": null, "activity_regularizer": null, "kernel_constraint": null, "bias_constraint": null}, "inbound_nodes": [[["max_pooling2d_34", 0, 0, {}]]]}, {"name": "conv2d_762", "class_name": "Conv2D", "config": {"name": "conv2d_762", "trainable": false, "filters": 96, "kernel_size": [3, 3], "strides": [1, 1], "padding": "same", "data_format": "channels_last", "dilation_rate": [1, 1], "activation": "linear", "use_bias": false, "kernel_initializer": {"class_name": "VarianceScaling", "config": {"scale": 1.0, "mode": "fan_avg", "distribution": "uniform", "seed": null}}, "bias_initializer": {"class_name": "Zeros", "config": {}}, "kernel_regularizer": null, "bias_regularizer": null, "activity_regularizer": null, "kernel_constraint": null, "bias_constraint": null}, "inbound_nodes": [[["activation_761", 0, 0, {}]]]}, {"name": "batch_normalization_759", "class_name": "BatchNormalization", "config": {"name": "batch_normalization_759", "trainable": false, "axis": 3, "momentum": 0.99, "epsilon": 0.001, "center": true, "scale": false, "beta_initializer": {"class_name": "Zeros", "config": {}}, "gamma_initializer": {"class_name": "Ones", "config": {}}, "moving_mean_initializer": {"class_name": "Zeros", "config": {}}, "moving_variance_initializer": {"class_name": "Ones", "config": {}}, "beta_regularizer": null, "gamma_regularizer": null, "beta_constraint": null, "gamma_constraint": null}, "inbound_nodes": [[["conv2d_759", 0, 0, {}]]]}, {"name": "batch_normalization_762", "class_name": "BatchNormalization", "config": {"name": "batch_normalization_762", "trainable": false, "axis": 3, "momentum": 0.99, "epsilon": 0.001, "center": true, "scale": false, "beta_initializer": {"class_name": "Zeros", "config": {}}, "gamma_initializer": {"class_name": "Ones", "config": {}}, "moving_mean_initializer": {"class_name": "Zeros", "config": {}}, "moving_variance_initializer": {"class_name": "Ones", "config": {}}, "beta_regularizer": null, "gamma_regularizer": null, "beta_constraint": null, "gamma_constraint": null}, "inbound_nodes": [[["conv2d_762", 0, 0, {}]]]}, {"name": "activation_759", "class_name": "Activation", "config": {"name": "activation_759", "trainable": false, "activation": "relu"}, "inbound_nodes": [[["batch_normalization_759", 0, 0, {}]]]}, {"name": "activation_762", "class_name": "Activation", "config": {"name": "activation_762", "trainable": false, "activation": "relu"}, "inbound_nodes": [[["batch_normalization_762", 0, 0, {}]]]}, {"name": "average_pooling2d_73", "class_name": "AveragePooling2D", "config": {"name": "average_pooling2d_73", "trainable": false, "pool_size": [3, 3], "padding": "same", "strides": [1, 1], "data_format": "channels_last"}, "inbound_nodes": [[["max_pooling2d_34", 0, 0, {}]]]}, {"name": "conv2d_758", "class_name": "Conv2D", "config": {"name": "conv2d_758", "trainable": false, "filters": 64, "kernel_size": [1, 1], "strides": [1, 1], "padding": "same", "data_format": "channels_last", "dilation_rate": [1, 1], "activation": "linear", "use_bias": false, "kernel_initializer": {"class_name": "VarianceScaling", "config": {"scale": 1.0, "mode": "fan_avg", "distribution": "uniform", "seed": null}}, "bias_initializer": {"class_name": "Zeros", "config": {}}, "kernel_regularizer": null, "bias_regularizer": null, "activity_regularizer": null, "kernel_constraint": null, "bias_constraint": null}, "inbound_nodes": [[["max_pooling2d_34", 0, 0, {}]]]}, {"name": "conv2d_760", "class_name": "Conv2D", "config": {"name": "conv2d_760", "trainable": false, "filters": 64, "kernel_size": [5, 5], "strides": [1, 1], "padding": "same", "data_format": "channels_last", "dilation_rate": [1, 1], "activation": "linear", "use_bias": false, "kernel_initializer": {"class_name": "VarianceScaling", "config": {"scale": 1.0, "mode": "fan_avg", "distribution": "uniform", "seed": null}}, "bias_initializer": {"class_name": "Zeros", "config": {}}, "kernel_regularizer": null, "bias_regularizer": null, "activity_regularizer": null, "kernel_constraint": null, "bias_constraint": null}, "inbound_nodes": [[["activation_759", 0, 0, {}]]]}, {"name": "conv2d_763", "class_name": "Conv2D", "config": {"name": "conv2d_763", "trainable": false, "filters": 96, "kernel_size": [3, 3], "strides": [1, 1], "padding": "same", "data_format": "channels_last", "dilation_rate": [1, 1], "activation": "linear", "use_bias": false, "kernel_initializer": {"class_name": "VarianceScaling", "config": {"scale": 1.0, "mode": "fan_avg", "distribution": "uniform", "seed": null}}, "bias_initializer": {"class_name": "Zeros", "config": {}}, "kernel_regularizer": null, "bias_regularizer": null, "activity_regularizer": null, "kernel_constraint": null, "bias_constraint": null}, "inbound_nodes": [[["activation_762", 0, 0, {}]]]}, {"name": "conv2d_764", "class_name": "Conv2D", "config": {"name": "conv2d_764", "trainable": false, "filters": 32, "kernel_size": [1, 1], "strides": [1, 1], "padding": "same", "data_format": "channels_last", "dilation_rate": [1, 1], "activation": "linear", "use_bias": false, "kernel_initializer": {"class_name": "VarianceScaling", "config": {"scale": 1.0, "mode": "fan_avg", "distribution": "uniform", "seed": null}}, "bias_initializer": {"class_name": "Zeros", "config": {}}, "kernel_regularizer": null, "bias_regularizer": null, "activity_regularizer": null, "kernel_constraint": null, "bias_constraint": null}, "inbound_nodes": [[["average_pooling2d_73", 0, 0, {}]]]}, {"name": "batch_normalization_758", "class_name": "BatchNormalization", "config": {"name": "batch_normalization_758", "trainable": false, "axis": 3, "momentum": 0.99, "epsilon": 0.001, "center": true, "scale": false, "beta_initializer": {"class_name": "Zeros", "config": {}}, "gamma_initializer": {"class_name": "Ones", "config": {}}, "moving_mean_initializer": {"class_name": "Zeros", "config": {}}, "moving_variance_initializer": {"class_name": "Ones", "config": {}}, "beta_regularizer": null, "gamma_regularizer": null, "beta_constraint": null, "gamma_constraint": null}, "inbound_nodes": [[["conv2d_758", 0, 0, {}]]]}, {"name": "batch_normalization_760", "class_name": "BatchNormalization", "config": {"name": "batch_normalization_760", "trainable": false, "axis": 3, "momentum": 0.99, "epsilon": 0.001, "center": true, "scale": false, "beta_initializer": {"class_name": "Zeros", "config": {}}, "gamma_initializer": {"class_name": "Ones", "config": {}}, "moving_mean_initializer": {"class_name": "Zeros", "config": {}}, "moving_variance_initializer": {"class_name": "Ones", "config": {}}, "beta_regularizer": null, "gamma_regularizer": null, "beta_constraint": null, "gamma_constraint": null}, "inbound_nodes": [[["conv2d_760", 0, 0, {}]]]}, {"name": "batch_normalization_763", "class_name": "BatchNormalization", "config": {"name": "batch_normalization_763", "trainable": false, "axis": 3, "momentum": 0.99, "epsilon": 0.001, "center": true, "scale": false, "beta_initializer": {"class_name": "Zeros", "config": {}}, "gamma_initializer": {"class_name": "Ones", "config": {}}, "moving_mean_initializer": {"class_name": "Zeros", "config": {}}, "moving_variance_initializer": {"class_name": "Ones", "config": {}}, "beta_regularizer": null, "gamma_regularizer": null, "beta_constraint": null, "gamma_constraint": null}, "inbound_nodes": [[["conv2d_763", 0, 0, {}]]]}, {"name": "batch_normalization_764", "class_name": "BatchNormalization", "config": {"name": "batch_normalization_764", "trainable": false, "axis": 3, "momentum": 0.99, "epsilon": 0.001, "center": true, "scale": false, "beta_initializer": {"class_name": "Zeros", "config": {}}, "gamma_initializer": {"class_name": "Ones", "config": {}}, "moving_mean_initializer": {"class_name": "Zeros", "config": {}}, "moving_variance_initializer": {"class_name": "Ones", "config": {}}, "beta_regularizer": null, "gamma_regularizer": null, "beta_constraint": null, "gamma_constraint": null}, "inbound_nodes": [[["conv2d_764", 0, 0, {}]]]}, {"name": "activation_758", "class_name": "Activation", "config": {"name": "activation_758", "trainable": false, "activation": "relu"}, "inbound_nodes": [[["batch_normalization_758", 0, 0, {}]]]}, {"name": "activation_760", "class_name": "Activation", "config": {"name": "activation_760", "trainable": false, "activation": "relu"}, "inbound_nodes": [[["batch_normalization_760", 0, 0, {}]]]}, {"name": "activation_763", "class_name": "Activation", "config": {"name": "activation_763", "trainable": false, "activation": "relu"}, "inbound_nodes": [[["batch_normalization_763", 0, 0, {}]]]}, {"name": "activation_764", "class_name": "Activation", "config": {"name": "activation_764", "trainable": false, "activation": "relu"}, "inbound_nodes": [[["batch_normalization_764", 0, 0, {}]]]}, {"name": "mixed0", "class_name": "Concatenate", "config": {"name": "mixed0", "trainable": false, "axis": 3}, "inbound_nodes": [[["activation_758", 0, 0, {}], ["activation_760", 0, 0, {}], ["activation_763", 0, 0, {}], ["activation_764", 0, 0, {}]]]}, {"name": "conv2d_768", "class_name": "Conv2D", "config": {"name": "conv2d_768", "trainable": false, "filters": 64, "kernel_size": [1, 1], "strides": [1, 1], "padding": "same", "data_format": "channels_last", "dilation_rate": [1, 1], "activation": "linear", "use_bias": false, "kernel_initializer": {"class_name": "VarianceScaling", "config": {"scale": 1.0, "mode": "fan_avg", "distribution": "uniform", "seed": null}}, "bias_initializer": {"class_name": "Zeros", "config": {}}, "kernel_regularizer": null, "bias_regularizer": null, "activity_regularizer": null, "kernel_constraint": null, "bias_constraint": null}, "inbound_nodes": [[["mixed0", 0, 0, {}]]]}, {"name": "batch_normalization_768", "class_name": "BatchNormalization", "config": {"name": "batch_normalization_768", "trainable": false, "axis": 3, "momentum": 0.99, "epsilon": 0.001, "center": true, "scale": false, "beta_initializer": {"class_name": "Zeros", "config": {}}, "gamma_initializer": {"class_name": "Ones", "config": {}}, "moving_mean_initializer": {"class_name": "Zeros", "config": {}}, "moving_variance_initializer": {"class_name": "Ones", "config": {}}, "beta_regularizer": null, "gamma_regularizer": null, "beta_constraint": null, "gamma_constraint": null}, "inbound_nodes": [[["conv2d_768", 0, 0, {}]]]}, {"name": "activation_768", "class_name": "Activation", "config": {"name": "activation_768", "trainable": false, "activation": "relu"}, "inbound_nodes": [[["batch_normalization_768", 0, 0, {}]]]}, {"name": "conv2d_766", "class_name": "Conv2D", "config": {"name": "conv2d_766", "trainable": false, "filters": 48, "kernel_size": [1, 1], "strides": [1, 1], "padding": "same", "data_format": "channels_last", "dilation_rate": [1, 1], "activation": "linear", "use_bias": false, "kernel_initializer": {"class_name": "VarianceScaling", "config": {"scale": 1.0, "mode": "fan_avg", "distribution": "uniform", "seed": null}}, "bias_initializer": {"class_name": "Zeros", "config": {}}, "kernel_regularizer": null, "bias_regularizer": null, "activity_regularizer": null, "kernel_constraint": null, "bias_constraint": null}, "inbound_nodes": [[["mixed0", 0, 0, {}]]]}, {"name": "conv2d_769", "class_name": "Conv2D", "config": {"name": "conv2d_769", "trainable": false, "filters": 96, "kernel_size": [3, 3], "strides": [1, 1], "padding": "same", "data_format": "channels_last", "dilation_rate": [1, 1], "activation": "linear", "use_bias": false, "kernel_initializer": {"class_name": "VarianceScaling", "config": {"scale": 1.0, "mode": "fan_avg", "distribution": "uniform", "seed": null}}, "bias_initializer": {"class_name": "Zeros", "config": {}}, "kernel_regularizer": null, "bias_regularizer": null, "activity_regularizer": null, "kernel_constraint": null, "bias_constraint": null}, "inbound_nodes": [[["activation_768", 0, 0, {}]]]}, {"name": "batch_normalization_766", "class_name": "BatchNormalization", "config": {"name": "batch_normalization_766", "trainable": false, "axis": 3, "momentum": 0.99, "epsilon": 0.001, "center": true, "scale": false, "beta_initializer": {"class_name": "Zeros", "config": {}}, "gamma_initializer": {"class_name": "Ones", "config": {}}, "moving_mean_initializer": {"class_name": "Zeros", "config": {}}, "moving_variance_initializer": {"class_name": "Ones", "config": {}}, "beta_regularizer": null, "gamma_regularizer": null, "beta_constraint": null, "gamma_constraint": null}, "inbound_nodes": [[["conv2d_766", 0, 0, {}]]]}, {"name": "batch_normalization_769", "class_name": "BatchNormalization", "config": {"name": "batch_normalization_769", "trainable": false, "axis": 3, "momentum": 0.99, "epsilon": 0.001, "center": true, "scale": false, "beta_initializer": {"class_name": "Zeros", "config": {}}, "gamma_initializer": {"class_name": "Ones", "config": {}}, "moving_mean_initializer": {"class_name": "Zeros", "config": {}}, "moving_variance_initializer": {"class_name": "Ones", "config": {}}, "beta_regularizer": null, "gamma_regularizer": null, "beta_constraint": null, "gamma_constraint": null}, "inbound_nodes": [[["conv2d_769", 0, 0, {}]]]}, {"name": "activation_766", "class_name": "Activation", "config": {"name": "activation_766", "trainable": false, "activation": "relu"}, "inbound_nodes": [[["batch_normalization_766", 0, 0, {}]]]}, {"name": "activation_769", "class_name": "Activation", "config": {"name": "activation_769", "trainable": false, "activation": "relu"}, "inbound_nodes": [[["batch_normalization_769", 0, 0, {}]]]}, {"name": "average_pooling2d_74", "class_name": "AveragePooling2D", "config": {"name": "average_pooling2d_74", "trainable": false, "pool_size": [3, 3], "padding": "same", "strides": [1, 1], "data_format": "channels_last"}, "inbound_nodes": [[["mixed0", 0, 0, {}]]]}, {"name": "conv2d_765", "class_name": "Conv2D", "config": {"name": "conv2d_765", "trainable": false, "filters": 64, "kernel_size": [1, 1], "strides": [1, 1], "padding": "same", "data_format": "channels_last", "dilation_rate": [1, 1], "activation": "linear", "use_bias": false, "kernel_initializer": {"class_name": "VarianceScaling", "config": {"scale": 1.0, "mode": "fan_avg", "distribution": "uniform", "seed": null}}, "bias_initializer": {"class_name": "Zeros", "config": {}}, "kernel_regularizer": null, "bias_regularizer": null, "activity_regularizer": null, "kernel_constraint": null, "bias_constraint": null}, "inbound_nodes": [[["mixed0", 0, 0, {}]]]}, {"name": "conv2d_767", "class_name": "Conv2D", "config": {"name": "conv2d_767", "trainable": false, "filters": 64, "kernel_size": [5, 5], "strides": [1, 1], "padding": "same", "data_format": "channels_last", "dilation_rate": [1, 1], "activation": "linear", "use_bias": false, "kernel_initializer": {"class_name": "VarianceScaling", "config": {"scale": 1.0, "mode": "fan_avg", "distribution": "uniform", "seed": null}}, "bias_initializer": {"class_name": "Zeros", "config": {}}, "kernel_regularizer": null, "bias_regularizer": null, "activity_regularizer": null, "kernel_constraint": null, "bias_constraint": null}, "inbound_nodes": [[["activation_766", 0, 0, {}]]]}, {"name": "conv2d_770", "class_name": "Conv2D", "config": {"name": "conv2d_770", "trainable": false, "filters": 96, "kernel_size": [3, 3], "strides": [1, 1], "padding": "same", "data_format": "channels_last", "dilation_rate": [1, 1], "activation": "linear", "use_bias": false, "kernel_initializer": {"class_name": "VarianceScaling", "config": {"scale": 1.0, "mode": "fan_avg", "distribution": "uniform", "seed": null}}, "bias_initializer": {"class_name": "Zeros", "config": {}}, "kernel_regularizer": null, "bias_regularizer": null, "activity_regularizer": null, "kernel_constraint": null, "bias_constraint": null}, "inbound_nodes": [[["activation_769", 0, 0, {}]]]}, {"name": "conv2d_771", "class_name": "Conv2D", "config": {"name": "conv2d_771", "trainable": false, "filters": 64, "kernel_size": [1, 1], "strides": [1, 1], "padding": "same", "data_format": "channels_last", "dilation_rate": [1, 1], "activation": "linear", "use_bias": false, "kernel_initializer": {"class_name": "VarianceScaling", "config": {"scale": 1.0, "mode": "fan_avg", "distribution": "uniform", "seed": null}}, "bias_initializer": {"class_name": "Zeros", "config": {}}, "kernel_regularizer": null, "bias_regularizer": null, "activity_regularizer": null, "kernel_constraint": null, "bias_constraint": null}, "inbound_nodes": [[["average_pooling2d_74", 0, 0, {}]]]}, {"name": "batch_normalization_765", "class_name": "BatchNormalization", "config": {"name": "batch_normalization_765", "trainable": false, "axis": 3, "momentum": 0.99, "epsilon": 0.001, "center": true, "scale": false, "beta_initializer": {"class_name": "Zeros", "config": {}}, "gamma_initializer": {"class_name": "Ones", "config": {}}, "moving_mean_initializer": {"class_name": "Zeros", "config": {}}, "moving_variance_initializer": {"class_name": "Ones", "config": {}}, "beta_regularizer": null, "gamma_regularizer": null, "beta_constraint": null, "gamma_constraint": null}, "inbound_nodes": [[["conv2d_765", 0, 0, {}]]]}, {"name": "batch_normalization_767", "class_name": "BatchNormalization", "config": {"name": "batch_normalization_767", "trainable": false, "axis": 3, "momentum": 0.99, "epsilon": 0.001, "center": true, "scale": false, "beta_initializer": {"class_name": "Zeros", "config": {}}, "gamma_initializer": {"class_name": "Ones", "config": {}}, "moving_mean_initializer": {"class_name": "Zeros", "config": {}}, "moving_variance_initializer": {"class_name": "Ones", "config": {}}, "beta_regularizer": null, "gamma_regularizer": null, "beta_constraint": null, "gamma_constraint": null}, "inbound_nodes": [[["conv2d_767", 0, 0, {}]]]}, {"name": "batch_normalization_770", "class_name": "BatchNormalization", "config": {"name": "batch_normalization_770", "trainable": false, "axis": 3, "momentum": 0.99, "epsilon": 0.001, "center": true, "scale": false, "beta_initializer": {"class_name": "Zeros", "config": {}}, "gamma_initializer": {"class_name": "Ones", "config": {}}, "moving_mean_initializer": {"class_name": "Zeros", "config": {}}, "moving_variance_initializer": {"class_name": "Ones", "config": {}}, "beta_regularizer": null, "gamma_regularizer": null, "beta_constraint": null, "gamma_constraint": null}, "inbound_nodes": [[["conv2d_770", 0, 0, {}]]]}, {"name": "batch_normalization_771", "class_name": "BatchNormalization", "config": {"name": "batch_normalization_771", "trainable": false, "axis": 3, "momentum": 0.99, "epsilon": 0.001, "center": true, "scale": false, "beta_initializer": {"class_name": "Zeros", "config": {}}, "gamma_initializer": {"class_name": "Ones", "config": {}}, "moving_mean_initializer": {"class_name": "Zeros", "config": {}}, "moving_variance_initializer": {"class_name": "Ones", "config": {}}, "beta_regularizer": null, "gamma_regularizer": null, "beta_constraint": null, "gamma_constraint": null}, "inbound_nodes": [[["conv2d_771", 0, 0, {}]]]}, {"name": "activation_765", "class_name": "Activation", "config": {"name": "activation_765", "trainable": false, "activation": "relu"}, "inbound_nodes": [[["batch_normalization_765", 0, 0, {}]]]}, {"name": "activation_767", "class_name": "Activation", "config": {"name": "activation_767", "trainable": false, "activation": "relu"}, "inbound_nodes": [[["batch_normalization_767", 0, 0, {}]]]}, {"name": "activation_770", "class_name": "Activation", "config": {"name": "activation_770", "trainable": false, "activation": "relu"}, "inbound_nodes": [[["batch_normalization_770", 0, 0, {}]]]}, {"name": "activation_771", "class_name": "Activation", "config": {"name": "activation_771", "trainable": false, "activation": "relu"}, "inbound_nodes": [[["batch_normalization_771", 0, 0, {}]]]}, {"name": "mixed1", "class_name": "Concatenate", "config": {"name": "mixed1", "trainable": false, "axis": 3}, "inbound_nodes": [[["activation_765", 0, 0, {}], ["activation_767", 0, 0, {}], ["activation_770", 0, 0, {}], ["activation_771", 0, 0, {}]]]}, {"name": "conv2d_775", "class_name": "Conv2D", "config": {"name": "conv2d_775", "trainable": false, "filters": 64, "kernel_size": [1, 1], "strides": [1, 1], "padding": "same", "data_format": "channels_last", "dilation_rate": [1, 1], "activation": "linear", "use_bias": false, "kernel_initializer": {"class_name": "VarianceScaling", "config": {"scale": 1.0, "mode": "fan_avg", "distribution": "uniform", "seed": null}}, "bias_initializer": {"class_name": "Zeros", "config": {}}, "kernel_regularizer": null, "bias_regularizer": null, "activity_regularizer": null, "kernel_constraint": null, "bias_constraint": null}, "inbound_nodes": [[["mixed1", 0, 0, {}]]]}, {"name": "batch_normalization_775", "class_name": "BatchNormalization", "config": {"name": "batch_normalization_775", "trainable": false, "axis": 3, "momentum": 0.99, "epsilon": 0.001, "center": true, "scale": false, "beta_initializer": {"class_name": "Zeros", "config": {}}, "gamma_initializer": {"class_name": "Ones", "config": {}}, "moving_mean_initializer": {"class_name": "Zeros", "config": {}}, "moving_variance_initializer": {"class_name": "Ones", "config": {}}, "beta_regularizer": null, "gamma_regularizer": null, "beta_constraint": null, "gamma_constraint": null}, "inbound_nodes": [[["conv2d_775", 0, 0, {}]]]}, {"name": "activation_775", "class_name": "Activation", "config": {"name": "activation_775", "trainable": false, "activation": "relu"}, "inbound_nodes": [[["batch_normalization_775", 0, 0, {}]]]}, {"name": "conv2d_773", "class_name": "Conv2D", "config": {"name": "conv2d_773", "trainable": false, "filters": 48, "kernel_size": [1, 1], "strides": [1, 1], "padding": "same", "data_format": "channels_last", "dilation_rate": [1, 1], "activation": "linear", "use_bias": false, "kernel_initializer": {"class_name": "VarianceScaling", "config": {"scale": 1.0, "mode": "fan_avg", "distribution": "uniform", "seed": null}}, "bias_initializer": {"class_name": "Zeros", "config": {}}, "kernel_regularizer": null, "bias_regularizer": null, "activity_regularizer": null, "kernel_constraint": null, "bias_constraint": null}, "inbound_nodes": [[["mixed1", 0, 0, {}]]]}, {"name": "conv2d_776", "class_name": "Conv2D", "config": {"name": "conv2d_776", "trainable": false, "filters": 96, "kernel_size": [3, 3], "strides": [1, 1], "padding": "same", "data_format": "channels_last", "dilation_rate": [1, 1], "activation": "linear", "use_bias": false, "kernel_initializer": {"class_name": "VarianceScaling", "config": {"scale": 1.0, "mode": "fan_avg", "distribution": "uniform", "seed": null}}, "bias_initializer": {"class_name": "Zeros", "config": {}}, "kernel_regularizer": null, "bias_regularizer": null, "activity_regularizer": null, "kernel_constraint": null, "bias_constraint": null}, "inbound_nodes": [[["activation_775", 0, 0, {}]]]}, {"name": "batch_normalization_773", "class_name": "BatchNormalization", "config": {"name": "batch_normalization_773", "trainable": false, "axis": 3, "momentum": 0.99, "epsilon": 0.001, "center": true, "scale": false, "beta_initializer": {"class_name": "Zeros", "config": {}}, "gamma_initializer": {"class_name": "Ones", "config": {}}, "moving_mean_initializer": {"class_name": "Zeros", "config": {}}, "moving_variance_initializer": {"class_name": "Ones", "config": {}}, "beta_regularizer": null, "gamma_regularizer": null, "beta_constraint": null, "gamma_constraint": null}, "inbound_nodes": [[["conv2d_773", 0, 0, {}]]]}, {"name": "batch_normalization_776", "class_name": "BatchNormalization", "config": {"name": "batch_normalization_776", "trainable": false, "axis": 3, "momentum": 0.99, "epsilon": 0.001, "center": true, "scale": false, "beta_initializer": {"class_name": "Zeros", "config": {}}, "gamma_initializer": {"class_name": "Ones", "config": {}}, "moving_mean_initializer": {"class_name": "Zeros", "config": {}}, "moving_variance_initializer": {"class_name": "Ones", "config": {}}, "beta_regularizer": null, "gamma_regularizer": null, "beta_constraint": null, "gamma_constraint": null}, "inbound_nodes": [[["conv2d_776", 0, 0, {}]]]}, {"name": "activation_773", "class_name": "Activation", "config": {"name": "activation_773", "trainable": false, "activation": "relu"}, "inbound_nodes": [[["batch_normalization_773", 0, 0, {}]]]}, {"name": "activation_776", "class_name": "Activation", "config": {"name": "activation_776", "trainable": false, "activation": "relu"}, "inbound_nodes": [[["batch_normalization_776", 0, 0, {}]]]}, {"name": "average_pooling2d_75", "class_name": "AveragePooling2D", "config": {"name": "average_pooling2d_75", "trainable": false, "pool_size": [3, 3], "padding": "same", "strides": [1, 1], "data_format": "channels_last"}, "inbound_nodes": [[["mixed1", 0, 0, {}]]]}, {"name": "conv2d_772", "class_name": "Conv2D", "config": {"name": "conv2d_772", "trainable": false, "filters": 64, "kernel_size": [1, 1], "strides": [1, 1], "padding": "same", "data_format": "channels_last", "dilation_rate": [1, 1], "activation": "linear", "use_bias": false, "kernel_initializer": {"class_name": "VarianceScaling", "config": {"scale": 1.0, "mode": "fan_avg", "distribution": "uniform", "seed": null}}, "bias_initializer": {"class_name": "Zeros", "config": {}}, "kernel_regularizer": null, "bias_regularizer": null, "activity_regularizer": null, "kernel_constraint": null, "bias_constraint": null}, "inbound_nodes": [[["mixed1", 0, 0, {}]]]}, {"name": "conv2d_774", "class_name": "Conv2D", "config": {"name": "conv2d_774", "trainable": false, "filters": 64, "kernel_size": [5, 5], "strides": [1, 1], "padding": "same", "data_format": "channels_last", "dilation_rate": [1, 1], "activation": "linear", "use_bias": false, "kernel_initializer": {"class_name": "VarianceScaling", "config": {"scale": 1.0, "mode": "fan_avg", "distribution": "uniform", "seed": null}}, "bias_initializer": {"class_name": "Zeros", "config": {}}, "kernel_regularizer": null, "bias_regularizer": null, "activity_regularizer": null, "kernel_constraint": null, "bias_constraint": null}, "inbound_nodes": [[["activation_773", 0, 0, {}]]]}, {"name": "conv2d_777", "class_name": "Conv2D", "config": {"name": "conv2d_777", "trainable": false, "filters": 96, "kernel_size": [3, 3], "strides": [1, 1], "padding": "same", "data_format": "channels_last", "dilation_rate": [1, 1], "activation": "linear", "use_bias": false, "kernel_initializer": {"class_name": "VarianceScaling", "config": {"scale": 1.0, "mode": "fan_avg", "distribution": "uniform", "seed": null}}, "bias_initializer": {"class_name": "Zeros", "config": {}}, "kernel_regularizer": null, "bias_regularizer": null, "activity_regularizer": null, "kernel_constraint": null, "bias_constraint": null}, "inbound_nodes": [[["activation_776", 0, 0, {}]]]}, {"name": "conv2d_778", "class_name": "Conv2D", "config": {"name": "conv2d_778", "trainable": false, "filters": 64, "kernel_size": [1, 1], "strides": [1, 1], "padding": "same", "data_format": "channels_last", "dilation_rate": [1, 1], "activation": "linear", "use_bias": false, "kernel_initializer": {"class_name": "VarianceScaling", "config": {"scale": 1.0, "mode": "fan_avg", "distribution": "uniform", "seed": null}}, "bias_initializer": {"class_name": "Zeros", "config": {}}, "kernel_regularizer": null, "bias_regularizer": null, "activity_regularizer": null, "kernel_constraint": null, "bias_constraint": null}, "inbound_nodes": [[["average_pooling2d_75", 0, 0, {}]]]}, {"name": "batch_normalization_772", "class_name": "BatchNormalization", "config": {"name": "batch_normalization_772", "trainable": false, "axis": 3, "momentum": 0.99, "epsilon": 0.001, "center": true, "scale": false, "beta_initializer": {"class_name": "Zeros", "config": {}}, "gamma_initializer": {"class_name": "Ones", "config": {}}, "moving_mean_initializer": {"class_name": "Zeros", "config": {}}, "moving_variance_initializer": {"class_name": "Ones", "config": {}}, "beta_regularizer": null, "gamma_regularizer": null, "beta_constraint": null, "gamma_constraint": null}, "inbound_nodes": [[["conv2d_772", 0, 0, {}]]]}, {"name": "batch_normalization_774", "class_name": "BatchNormalization", "config": {"name": "batch_normalization_774", "trainable": false, "axis": 3, "momentum": 0.99, "epsilon": 0.001, "center": true, "scale": false, "beta_initializer": {"class_name": "Zeros", "config": {}}, "gamma_initializer": {"class_name": "Ones", "config": {}}, "moving_mean_initializer": {"class_name": "Zeros", "config": {}}, "moving_variance_initializer": {"class_name": "Ones", "config": {}}, "beta_regularizer": null, "gamma_regularizer": null, "beta_constraint": null, "gamma_constraint": null}, "inbound_nodes": [[["conv2d_774", 0, 0, {}]]]}, {"name": "batch_normalization_777", "class_name": "BatchNormalization", "config": {"name": "batch_normalization_777", "trainable": false, "axis": 3, "momentum": 0.99, "epsilon": 0.001, "center": true, "scale": false, "beta_initializer": {"class_name": "Zeros", "config": {}}, "gamma_initializer": {"class_name": "Ones", "config": {}}, "moving_mean_initializer": {"class_name": "Zeros", "config": {}}, "moving_variance_initializer": {"class_name": "Ones", "config": {}}, "beta_regularizer": null, "gamma_regularizer": null, "beta_constraint": null, "gamma_constraint": null}, "inbound_nodes": [[["conv2d_777", 0, 0, {}]]]}, {"name": "batch_normalization_778", "class_name": "BatchNormalization", "config": {"name": "batch_normalization_778", "trainable": false, "axis": 3, "momentum": 0.99, "epsilon": 0.001, "center": true, "scale": false, "beta_initializer": {"class_name": "Zeros", "config": {}}, "gamma_initializer": {"class_name": "Ones", "config": {}}, "moving_mean_initializer": {"class_name": "Zeros", "config": {}}, "moving_variance_initializer": {"class_name": "Ones", "config": {}}, "beta_regularizer": null, "gamma_regularizer": null, "beta_constraint": null, "gamma_constraint": null}, "inbound_nodes": [[["conv2d_778", 0, 0, {}]]]}, {"name": "activation_772", "class_name": "Activation", "config": {"name": "activation_772", "trainable": false, "activation": "relu"}, "inbound_nodes": [[["batch_normalization_772", 0, 0, {}]]]}, {"name": "activation_774", "class_name": "Activation", "config": {"name": "activation_774", "trainable": false, "activation": "relu"}, "inbound_nodes": [[["batch_normalization_774", 0, 0, {}]]]}, {"name": "activation_777", "class_name": "Activation", "config": {"name": "activation_777", "trainable": false, "activation": "relu"}, "inbound_nodes": [[["batch_normalization_777", 0, 0, {}]]]}, {"name": "activation_778", "class_name": "Activation", "config": {"name": "activation_778", "trainable": false, "activation": "relu"}, "inbound_nodes": [[["batch_normalization_778", 0, 0, {}]]]}, {"name": "mixed2", "class_name": "Concatenate", "config": {"name": "mixed2", "trainable": false, "axis": 3}, "inbound_nodes": [[["activation_772", 0, 0, {}], ["activation_774", 0, 0, {}], ["activation_777", 0, 0, {}], ["activation_778", 0, 0, {}]]]}, {"name": "conv2d_780", "class_name": "Conv2D", "config": {"name": "conv2d_780", "trainable": false, "filters": 64, "kernel_size": [1, 1], "strides": [1, 1], "padding": "same", "data_format": "channels_last", "dilation_rate": [1, 1], "activation": "linear", "use_bias": false, "kernel_initializer": {"class_name": "VarianceScaling", "config": {"scale": 1.0, "mode": "fan_avg", "distribution": "uniform", "seed": null}}, "bias_initializer": {"class_name": "Zeros", "config": {}}, "kernel_regularizer": null, "bias_regularizer": null, "activity_regularizer": null, "kernel_constraint": null, "bias_constraint": null}, "inbound_nodes": [[["mixed2", 0, 0, {}]]]}, {"name": "batch_normalization_780", "class_name": "BatchNormalization", "config": {"name": "batch_normalization_780", "trainable": false, "axis": 3, "momentum": 0.99, "epsilon": 0.001, "center": true, "scale": false, "beta_initializer": {"class_name": "Zeros", "config": {}}, "gamma_initializer": {"class_name": "Ones", "config": {}}, "moving_mean_initializer": {"class_name": "Zeros", "config": {}}, "moving_variance_initializer": {"class_name": "Ones", "config": {}}, "beta_regularizer": null, "gamma_regularizer": null, "beta_constraint": null, "gamma_constraint": null}, "inbound_nodes": [[["conv2d_780", 0, 0, {}]]]}, {"name": "activation_780", "class_name": "Activation", "config": {"name": "activation_780", "trainable": false, "activation": "relu"}, "inbound_nodes": [[["batch_normalization_780", 0, 0, {}]]]}, {"name": "conv2d_781", "class_name": "Conv2D", "config": {"name": "conv2d_781", "trainable": false, "filters": 96, "kernel_size": [3, 3], "strides": [1, 1], "padding": "same", "data_format": "channels_last", "dilation_rate": [1, 1], "activation": "linear", "use_bias": false, "kernel_initializer": {"class_name": "VarianceScaling", "config": {"scale": 1.0, "mode": "fan_avg", "distribution": "uniform", "seed": null}}, "bias_initializer": {"class_name": "Zeros", "config": {}}, "kernel_regularizer": null, "bias_regularizer": null, "activity_regularizer": null, "kernel_constraint": null, "bias_constraint": null}, "inbound_nodes": [[["activation_780", 0, 0, {}]]]}, {"name": "batch_normalization_781", "class_name": "BatchNormalization", "config": {"name": "batch_normalization_781", "trainable": false, "axis": 3, "momentum": 0.99, "epsilon": 0.001, "center": true, "scale": false, "beta_initializer": {"class_name": "Zeros", "config": {}}, "gamma_initializer": {"class_name": "Ones", "config": {}}, "moving_mean_initializer": {"class_name": "Zeros", "config": {}}, "moving_variance_initializer": {"class_name": "Ones", "config": {}}, "beta_regularizer": null, "gamma_regularizer": null, "beta_constraint": null, "gamma_constraint": null}, "inbound_nodes": [[["conv2d_781", 0, 0, {}]]]}, {"name": "activation_781", "class_name": "Activation", "config": {"name": "activation_781", "trainable": false, "activation": "relu"}, "inbound_nodes": [[["batch_normalization_781", 0, 0, {}]]]}, {"name": "conv2d_779", "class_name": "Conv2D", "config": {"name": "conv2d_779", "trainable": false, "filters": 384, "kernel_size": [3, 3], "strides": [2, 2], "padding": "valid", "data_format": "channels_last", "dilation_rate": [1, 1], "activation": "linear", "use_bias": false, "kernel_initializer": {"class_name": "VarianceScaling", "config": {"scale": 1.0, "mode": "fan_avg", "distribution": "uniform", "seed": null}}, "bias_initializer": {"class_name": "Zeros", "config": {}}, "kernel_regularizer": null, "bias_regularizer": null, "activity_regularizer": null, "kernel_constraint": null, "bias_constraint": null}, "inbound_nodes": [[["mixed2", 0, 0, {}]]]}, {"name": "conv2d_782", "class_name": "Conv2D", "config": {"name": "conv2d_782", "trainable": false, "filters": 96, "kernel_size": [3, 3], "strides": [2, 2], "padding": "valid", "data_format": "channels_last", "dilation_rate": [1, 1], "activation": "linear", "use_bias": false, "kernel_initializer": {"class_name": "VarianceScaling", "config": {"scale": 1.0, "mode": "fan_avg", "distribution": "uniform", "seed": null}}, "bias_initializer": {"class_name": "Zeros", "config": {}}, "kernel_regularizer": null, "bias_regularizer": null, "activity_regularizer": null, "kernel_constraint": null, "bias_constraint": null}, "inbound_nodes": [[["activation_781", 0, 0, {}]]]}, {"name": "batch_normalization_779", "class_name": "BatchNormalization", "config": {"name": "batch_normalization_779", "trainable": false, "axis": 3, "momentum": 0.99, "epsilon": 0.001, "center": true, "scale": false, "beta_initializer": {"class_name": "Zeros", "config": {}}, "gamma_initializer": {"class_name": "Ones", "config": {}}, "moving_mean_initializer": {"class_name": "Zeros", "config": {}}, "moving_variance_initializer": {"class_name": "Ones", "config": {}}, "beta_regularizer": null, "gamma_regularizer": null, "beta_constraint": null, "gamma_constraint": null}, "inbound_nodes": [[["conv2d_779", 0, 0, {}]]]}, {"name": "batch_normalization_782", "class_name": "BatchNormalization", "config": {"name": "batch_normalization_782", "trainable": false, "axis": 3, "momentum": 0.99, "epsilon": 0.001, "center": true, "scale": false, "beta_initializer": {"class_name": "Zeros", "config": {}}, "gamma_initializer": {"class_name": "Ones", "config": {}}, "moving_mean_initializer": {"class_name": "Zeros", "config": {}}, "moving_variance_initializer": {"class_name": "Ones", "config": {}}, "beta_regularizer": null, "gamma_regularizer": null, "beta_constraint": null, "gamma_constraint": null}, "inbound_nodes": [[["conv2d_782", 0, 0, {}]]]}, {"name": "activation_779", "class_name": "Activation", "config": {"name": "activation_779", "trainable": false, "activation": "relu"}, "inbound_nodes": [[["batch_normalization_779", 0, 0, {}]]]}, {"name": "activation_782", "class_name": "Activation", "config": {"name": "activation_782", "trainable": false, "activation": "relu"}, "inbound_nodes": [[["batch_normalization_782", 0, 0, {}]]]}, {"name": "max_pooling2d_35", "class_name": "MaxPooling2D", "config": {"name": "max_pooling2d_35", "trainable": false, "pool_size": [3, 3], "padding": "valid", "strides": [2, 2], "data_format": "channels_last"}, "inbound_nodes": [[["mixed2", 0, 0, {}]]]}, {"name": "mixed3", "class_name": "Concatenate", "config": {"name": "mixed3", "trainable": false, "axis": 3}, "inbound_nodes": [[["activation_779", 0, 0, {}], ["activation_782", 0, 0, {}], ["max_pooling2d_35", 0, 0, {}]]]}, {"name": "conv2d_787", "class_name": "Conv2D", "config": {"name": "conv2d_787", "trainable": false, "filters": 128, "kernel_size": [1, 1], "strides": [1, 1], "padding": "same", "data_format": "channels_last", "dilation_rate": [1, 1], "activation": "linear", "use_bias": false, "kernel_initializer": {"class_name": "VarianceScaling", "config": {"scale": 1.0, "mode": "fan_avg", "distribution": "uniform", "seed": null}}, "bias_initializer": {"class_name": "Zeros", "config": {}}, "kernel_regularizer": null, "bias_regularizer": null, "activity_regularizer": null, "kernel_constraint": null, "bias_constraint": null}, "inbound_nodes": [[["mixed3", 0, 0, {}]]]}, {"name": "batch_normalization_787", "class_name": "BatchNormalization", "config": {"name": "batch_normalization_787", "trainable": false, "axis": 3, "momentum": 0.99, "epsilon": 0.001, "center": true, "scale": false, "beta_initializer": {"class_name": "Zeros", "config": {}}, "gamma_initializer": {"class_name": "Ones", "config": {}}, "moving_mean_initializer": {"class_name": "Zeros", "config": {}}, "moving_variance_initializer": {"class_name": "Ones", "config": {}}, "beta_regularizer": null, "gamma_regularizer": null, "beta_constraint": null, "gamma_constraint": null}, "inbound_nodes": [[["conv2d_787", 0, 0, {}]]]}, {"name": "activation_787", "class_name": "Activation", "config": {"name": "activation_787", "trainable": false, "activation": "relu"}, "inbound_nodes": [[["batch_normalization_787", 0, 0, {}]]]}, {"name": "conv2d_788", "class_name": "Conv2D", "config": {"name": "conv2d_788", "trainable": false, "filters": 128, "kernel_size": [7, 1], "strides": [1, 1], "padding": "same", "data_format": "channels_last", "dilation_rate": [1, 1], "activation": "linear", "use_bias": false, "kernel_initializer": {"class_name": "VarianceScaling", "config": {"scale": 1.0, "mode": "fan_avg", "distribution": "uniform", "seed": null}}, "bias_initializer": {"class_name": "Zeros", "config": {}}, "kernel_regularizer": null, "bias_regularizer": null, "activity_regularizer": null, "kernel_constraint": null, "bias_constraint": null}, "inbound_nodes": [[["activation_787", 0, 0, {}]]]}, {"name": "batch_normalization_788", "class_name": "BatchNormalization", "config": {"name": "batch_normalization_788", "trainable": false, "axis": 3, "momentum": 0.99, "epsilon": 0.001, "center": true, "scale": false, "beta_initializer": {"class_name": "Zeros", "config": {}}, "gamma_initializer": {"class_name": "Ones", "config": {}}, "moving_mean_initializer": {"class_name": "Zeros", "config": {}}, "moving_variance_initializer": {"class_name": "Ones", "config": {}}, "beta_regularizer": null, "gamma_regularizer": null, "beta_constraint": null, "gamma_constraint": null}, "inbound_nodes": [[["conv2d_788", 0, 0, {}]]]}, {"name": "activation_788", "class_name": "Activation", "config": {"name": "activation_788", "trainable": false, "activation": "relu"}, "inbound_nodes": [[["batch_normalization_788", 0, 0, {}]]]}, {"name": "conv2d_784", "class_name": "Conv2D", "config": {"name": "conv2d_784", "trainable": false, "filters": 128, "kernel_size": [1, 1], "strides": [1, 1], "padding": "same", "data_format": "channels_last", "dilation_rate": [1, 1], "activation": "linear", "use_bias": false, "kernel_initializer": {"class_name": "VarianceScaling", "config": {"scale": 1.0, "mode": "fan_avg", "distribution": "uniform", "seed": null}}, "bias_initializer": {"class_name": "Zeros", "config": {}}, "kernel_regularizer": null, "bias_regularizer": null, "activity_regularizer": null, "kernel_constraint": null, "bias_constraint": null}, "inbound_nodes": [[["mixed3", 0, 0, {}]]]}, {"name": "conv2d_789", "class_name": "Conv2D", "config": {"name": "conv2d_789", "trainable": false, "filters": 128, "kernel_size": [1, 7], "strides": [1, 1], "padding": "same", "data_format": "channels_last", "dilation_rate": [1, 1], "activation": "linear", "use_bias": false, "kernel_initializer": {"class_name": "VarianceScaling", "config": {"scale": 1.0, "mode": "fan_avg", "distribution": "uniform", "seed": null}}, "bias_initializer": {"class_name": "Zeros", "config": {}}, "kernel_regularizer": null, "bias_regularizer": null, "activity_regularizer": null, "kernel_constraint": null, "bias_constraint": null}, "inbound_nodes": [[["activation_788", 0, 0, {}]]]}, {"name": "batch_normalization_784", "class_name": "BatchNormalization", "config": {"name": "batch_normalization_784", "trainable": false, "axis": 3, "momentum": 0.99, "epsilon": 0.001, "center": true, "scale": false, "beta_initializer": {"class_name": "Zeros", "config": {}}, "gamma_initializer": {"class_name": "Ones", "config": {}}, "moving_mean_initializer": {"class_name": "Zeros", "config": {}}, "moving_variance_initializer": {"class_name": "Ones", "config": {}}, "beta_regularizer": null, "gamma_regularizer": null, "beta_constraint": null, "gamma_constraint": null}, "inbound_nodes": [[["conv2d_784", 0, 0, {}]]]}, {"name": "batch_normalization_789", "class_name": "BatchNormalization", "config": {"name": "batch_normalization_789", "trainable": false, "axis": 3, "momentum": 0.99, "epsilon": 0.001, "center": true, "scale": false, "beta_initializer": {"class_name": "Zeros", "config": {}}, "gamma_initializer": {"class_name": "Ones", "config": {}}, "moving_mean_initializer": {"class_name": "Zeros", "config": {}}, "moving_variance_initializer": {"class_name": "Ones", "config": {}}, "beta_regularizer": null, "gamma_regularizer": null, "beta_constraint": null, "gamma_constraint": null}, "inbound_nodes": [[["conv2d_789", 0, 0, {}]]]}, {"name": "activation_784", "class_name": "Activation", "config": {"name": "activation_784", "trainable": false, "activation": "relu"}, "inbound_nodes": [[["batch_normalization_784", 0, 0, {}]]]}, {"name": "activation_789", "class_name": "Activation", "config": {"name": "activation_789", "trainable": false, "activation": "relu"}, "inbound_nodes": [[["batch_normalization_789", 0, 0, {}]]]}, {"name": "conv2d_785", "class_name": "Conv2D", "config": {"name": "conv2d_785", "trainable": false, "filters": 128, "kernel_size": [1, 7], "strides": [1, 1], "padding": "same", "data_format": "channels_last", "dilation_rate": [1, 1], "activation": "linear", "use_bias": false, "kernel_initializer": {"class_name": "VarianceScaling", "config": {"scale": 1.0, "mode": "fan_avg", "distribution": "uniform", "seed": null}}, "bias_initializer": {"class_name": "Zeros", "config": {}}, "kernel_regularizer": null, "bias_regularizer": null, "activity_regularizer": null, "kernel_constraint": null, "bias_constraint": null}, "inbound_nodes": [[["activation_784", 0, 0, {}]]]}, {"name": "conv2d_790", "class_name": "Conv2D", "config": {"name": "conv2d_790", "trainable": false, "filters": 128, "kernel_size": [7, 1], "strides": [1, 1], "padding": "same", "data_format": "channels_last", "dilation_rate": [1, 1], "activation": "linear", "use_bias": false, "kernel_initializer": {"class_name": "VarianceScaling", "config": {"scale": 1.0, "mode": "fan_avg", "distribution": "uniform", "seed": null}}, "bias_initializer": {"class_name": "Zeros", "config": {}}, "kernel_regularizer": null, "bias_regularizer": null, "activity_regularizer": null, "kernel_constraint": null, "bias_constraint": null}, "inbound_nodes": [[["activation_789", 0, 0, {}]]]}, {"name": "batch_normalization_785", "class_name": "BatchNormalization", "config": {"name": "batch_normalization_785", "trainable": false, "axis": 3, "momentum": 0.99, "epsilon": 0.001, "center": true, "scale": false, "beta_initializer": {"class_name": "Zeros", "config": {}}, "gamma_initializer": {"class_name": "Ones", "config": {}}, "moving_mean_initializer": {"class_name": "Zeros", "config": {}}, "moving_variance_initializer": {"class_name": "Ones", "config": {}}, "beta_regularizer": null, "gamma_regularizer": null, "beta_constraint": null, "gamma_constraint": null}, "inbound_nodes": [[["conv2d_785", 0, 0, {}]]]}, {"name": "batch_normalization_790", "class_name": "BatchNormalization", "config": {"name": "batch_normalization_790", "trainable": false, "axis": 3, "momentum": 0.99, "epsilon": 0.001, "center": true, "scale": false, "beta_initializer": {"class_name": "Zeros", "config": {}}, "gamma_initializer": {"class_name": "Ones", "config": {}}, "moving_mean_initializer": {"class_name": "Zeros", "config": {}}, "moving_variance_initializer": {"class_name": "Ones", "config": {}}, "beta_regularizer": null, "gamma_regularizer": null, "beta_constraint": null, "gamma_constraint": null}, "inbound_nodes": [[["conv2d_790", 0, 0, {}]]]}, {"name": "activation_785", "class_name": "Activation", "config": {"name": "activation_785", "trainable": false, "activation": "relu"}, "inbound_nodes": [[["batch_normalization_785", 0, 0, {}]]]}, {"name": "activation_790", "class_name": "Activation", "config": {"name": "activation_790", "trainable": false, "activation": "relu"}, "inbound_nodes": [[["batch_normalization_790", 0, 0, {}]]]}, {"name": "average_pooling2d_76", "class_name": "AveragePooling2D", "config": {"name": "average_pooling2d_76", "trainable": false, "pool_size": [3, 3], "padding": "same", "strides": [1, 1], "data_format": "channels_last"}, "inbound_nodes": [[["mixed3", 0, 0, {}]]]}, {"name": "conv2d_783", "class_name": "Conv2D", "config": {"name": "conv2d_783", "trainable": false, "filters": 192, "kernel_size": [1, 1], "strides": [1, 1], "padding": "same", "data_format": "channels_last", "dilation_rate": [1, 1], "activation": "linear", "use_bias": false, "kernel_initializer": {"class_name": "VarianceScaling", "config": {"scale": 1.0, "mode": "fan_avg", "distribution": "uniform", "seed": null}}, "bias_initializer": {"class_name": "Zeros", "config": {}}, "kernel_regularizer": null, "bias_regularizer": null, "activity_regularizer": null, "kernel_constraint": null, "bias_constraint": null}, "inbound_nodes": [[["mixed3", 0, 0, {}]]]}, {"name": "conv2d_786", "class_name": "Conv2D", "config": {"name": "conv2d_786", "trainable": false, "filters": 192, "kernel_size": [7, 1], "strides": [1, 1], "padding": "same", "data_format": "channels_last", "dilation_rate": [1, 1], "activation": "linear", "use_bias": false, "kernel_initializer": {"class_name": "VarianceScaling", "config": {"scale": 1.0, "mode": "fan_avg", "distribution": "uniform", "seed": null}}, "bias_initializer": {"class_name": "Zeros", "config": {}}, "kernel_regularizer": null, "bias_regularizer": null, "activity_regularizer": null, "kernel_constraint": null, "bias_constraint": null}, "inbound_nodes": [[["activation_785", 0, 0, {}]]]}, {"name": "conv2d_791", "class_name": "Conv2D", "config": {"name": "conv2d_791", "trainable": false, "filters": 192, "kernel_size": [1, 7], "strides": [1, 1], "padding": "same", "data_format": "channels_last", "dilation_rate": [1, 1], "activation": "linear", "use_bias": false, "kernel_initializer": {"class_name": "VarianceScaling", "config": {"scale": 1.0, "mode": "fan_avg", "distribution": "uniform", "seed": null}}, "bias_initializer": {"class_name": "Zeros", "config": {}}, "kernel_regularizer": null, "bias_regularizer": null, "activity_regularizer": null, "kernel_constraint": null, "bias_constraint": null}, "inbound_nodes": [[["activation_790", 0, 0, {}]]]}, {"name": "conv2d_792", "class_name": "Conv2D", "config": {"name": "conv2d_792", "trainable": false, "filters": 192, "kernel_size": [1, 1], "strides": [1, 1], "padding": "same", "data_format": "channels_last", "dilation_rate": [1, 1], "activation": "linear", "use_bias": false, "kernel_initializer": {"class_name": "VarianceScaling", "config": {"scale": 1.0, "mode": "fan_avg", "distribution": "uniform", "seed": null}}, "bias_initializer": {"class_name": "Zeros", "config": {}}, "kernel_regularizer": null, "bias_regularizer": null, "activity_regularizer": null, "kernel_constraint": null, "bias_constraint": null}, "inbound_nodes": [[["average_pooling2d_76", 0, 0, {}]]]}, {"name": "batch_normalization_783", "class_name": "BatchNormalization", "config": {"name": "batch_normalization_783", "trainable": false, "axis": 3, "momentum": 0.99, "epsilon": 0.001, "center": true, "scale": false, "beta_initializer": {"class_name": "Zeros", "config": {}}, "gamma_initializer": {"class_name": "Ones", "config": {}}, "moving_mean_initializer": {"class_name": "Zeros", "config": {}}, "moving_variance_initializer": {"class_name": "Ones", "config": {}}, "beta_regularizer": null, "gamma_regularizer": null, "beta_constraint": null, "gamma_constraint": null}, "inbound_nodes": [[["conv2d_783", 0, 0, {}]]]}, {"name": "batch_normalization_786", "class_name": "BatchNormalization", "config": {"name": "batch_normalization_786", "trainable": false, "axis": 3, "momentum": 0.99, "epsilon": 0.001, "center": true, "scale": false, "beta_initializer": {"class_name": "Zeros", "config": {}}, "gamma_initializer": {"class_name": "Ones", "config": {}}, "moving_mean_initializer": {"class_name": "Zeros", "config": {}}, "moving_variance_initializer": {"class_name": "Ones", "config": {}}, "beta_regularizer": null, "gamma_regularizer": null, "beta_constraint": null, "gamma_constraint": null}, "inbound_nodes": [[["conv2d_786", 0, 0, {}]]]}, {"name": "batch_normalization_791", "class_name": "BatchNormalization", "config": {"name": "batch_normalization_791", "trainable": false, "axis": 3, "momentum": 0.99, "epsilon": 0.001, "center": true, "scale": false, "beta_initializer": {"class_name": "Zeros", "config": {}}, "gamma_initializer": {"class_name": "Ones", "config": {}}, "moving_mean_initializer": {"class_name": "Zeros", "config": {}}, "moving_variance_initializer": {"class_name": "Ones", "config": {}}, "beta_regularizer": null, "gamma_regularizer": null, "beta_constraint": null, "gamma_constraint": null}, "inbound_nodes": [[["conv2d_791", 0, 0, {}]]]}, {"name": "batch_normalization_792", "class_name": "BatchNormalization", "config": {"name": "batch_normalization_792", "trainable": false, "axis": 3, "momentum": 0.99, "epsilon": 0.001, "center": true, "scale": false, "beta_initializer": {"class_name": "Zeros", "config": {}}, "gamma_initializer": {"class_name": "Ones", "config": {}}, "moving_mean_initializer": {"class_name": "Zeros", "config": {}}, "moving_variance_initializer": {"class_name": "Ones", "config": {}}, "beta_regularizer": null, "gamma_regularizer": null, "beta_constraint": null, "gamma_constraint": null}, "inbound_nodes": [[["conv2d_792", 0, 0, {}]]]}, {"name": "activation_783", "class_name": "Activation", "config": {"name": "activation_783", "trainable": false, "activation": "relu"}, "inbound_nodes": [[["batch_normalization_783", 0, 0, {}]]]}, {"name": "activation_786", "class_name": "Activation", "config": {"name": "activation_786", "trainable": false, "activation": "relu"}, "inbound_nodes": [[["batch_normalization_786", 0, 0, {}]]]}, {"name": "activation_791", "class_name": "Activation", "config": {"name": "activation_791", "trainable": false, "activation": "relu"}, "inbound_nodes": [[["batch_normalization_791", 0, 0, {}]]]}, {"name": "activation_792", "class_name": "Activation", "config": {"name": "activation_792", "trainable": false, "activation": "relu"}, "inbound_nodes": [[["batch_normalization_792", 0, 0, {}]]]}, {"name": "mixed4", "class_name": "Concatenate", "config": {"name": "mixed4", "trainable": false, "axis": 3}, "inbound_nodes": [[["activation_783", 0, 0, {}], ["activation_786", 0, 0, {}], ["activation_791", 0, 0, {}], ["activation_792", 0, 0, {}]]]}, {"name": "conv2d_797", "class_name": "Conv2D", "config": {"name": "conv2d_797", "trainable": false, "filters": 160, "kernel_size": [1, 1], "strides": [1, 1], "padding": "same", "data_format": "channels_last", "dilation_rate": [1, 1], "activation": "linear", "use_bias": false, "kernel_initializer": {"class_name": "VarianceScaling", "config": {"scale": 1.0, "mode": "fan_avg", "distribution": "uniform", "seed": null}}, "bias_initializer": {"class_name": "Zeros", "config": {}}, "kernel_regularizer": null, "bias_regularizer": null, "activity_regularizer": null, "kernel_constraint": null, "bias_constraint": null}, "inbound_nodes": [[["mixed4", 0, 0, {}]]]}, {"name": "batch_normalization_797", "class_name": "BatchNormalization", "config": {"name": "batch_normalization_797", "trainable": false, "axis": 3, "momentum": 0.99, "epsilon": 0.001, "center": true, "scale": false, "beta_initializer": {"class_name": "Zeros", "config": {}}, "gamma_initializer": {"class_name": "Ones", "config": {}}, "moving_mean_initializer": {"class_name": "Zeros", "config": {}}, "moving_variance_initializer": {"class_name": "Ones", "config": {}}, "beta_regularizer": null, "gamma_regularizer": null, "beta_constraint": null, "gamma_constraint": null}, "inbound_nodes": [[["conv2d_797", 0, 0, {}]]]}, {"name": "activation_797", "class_name": "Activation", "config": {"name": "activation_797", "trainable": false, "activation": "relu"}, "inbound_nodes": [[["batch_normalization_797", 0, 0, {}]]]}, {"name": "conv2d_798", "class_name": "Conv2D", "config": {"name": "conv2d_798", "trainable": false, "filters": 160, "kernel_size": [7, 1], "strides": [1, 1], "padding": "same", "data_format": "channels_last", "dilation_rate": [1, 1], "activation": "linear", "use_bias": false, "kernel_initializer": {"class_name": "VarianceScaling", "config": {"scale": 1.0, "mode": "fan_avg", "distribution": "uniform", "seed": null}}, "bias_initializer": {"class_name": "Zeros", "config": {}}, "kernel_regularizer": null, "bias_regularizer": null, "activity_regularizer": null, "kernel_constraint": null, "bias_constraint": null}, "inbound_nodes": [[["activation_797", 0, 0, {}]]]}, {"name": "batch_normalization_798", "class_name": "BatchNormalization", "config": {"name": "batch_normalization_798", "trainable": false, "axis": 3, "momentum": 0.99, "epsilon": 0.001, "center": true, "scale": false, "beta_initializer": {"class_name": "Zeros", "config": {}}, "gamma_initializer": {"class_name": "Ones", "config": {}}, "moving_mean_initializer": {"class_name": "Zeros", "config": {}}, "moving_variance_initializer": {"class_name": "Ones", "config": {}}, "beta_regularizer": null, "gamma_regularizer": null, "beta_constraint": null, "gamma_constraint": null}, "inbound_nodes": [[["conv2d_798", 0, 0, {}]]]}, {"name": "activation_798", "class_name": "Activation", "config": {"name": "activation_798", "trainable": false, "activation": "relu"}, "inbound_nodes": [[["batch_normalization_798", 0, 0, {}]]]}, {"name": "conv2d_794", "class_name": "Conv2D", "config": {"name": "conv2d_794", "trainable": false, "filters": 160, "kernel_size": [1, 1], "strides": [1, 1], "padding": "same", "data_format": "channels_last", "dilation_rate": [1, 1], "activation": "linear", "use_bias": false, "kernel_initializer": {"class_name": "VarianceScaling", "config": {"scale": 1.0, "mode": "fan_avg", "distribution": "uniform", "seed": null}}, "bias_initializer": {"class_name": "Zeros", "config": {}}, "kernel_regularizer": null, "bias_regularizer": null, "activity_regularizer": null, "kernel_constraint": null, "bias_constraint": null}, "inbound_nodes": [[["mixed4", 0, 0, {}]]]}, {"name": "conv2d_799", "class_name": "Conv2D", "config": {"name": "conv2d_799", "trainable": false, "filters": 160, "kernel_size": [1, 7], "strides": [1, 1], "padding": "same", "data_format": "channels_last", "dilation_rate": [1, 1], "activation": "linear", "use_bias": false, "kernel_initializer": {"class_name": "VarianceScaling", "config": {"scale": 1.0, "mode": "fan_avg", "distribution": "uniform", "seed": null}}, "bias_initializer": {"class_name": "Zeros", "config": {}}, "kernel_regularizer": null, "bias_regularizer": null, "activity_regularizer": null, "kernel_constraint": null, "bias_constraint": null}, "inbound_nodes": [[["activation_798", 0, 0, {}]]]}, {"name": "batch_normalization_794", "class_name": "BatchNormalization", "config": {"name": "batch_normalization_794", "trainable": false, "axis": 3, "momentum": 0.99, "epsilon": 0.001, "center": true, "scale": false, "beta_initializer": {"class_name": "Zeros", "config": {}}, "gamma_initializer": {"class_name": "Ones", "config": {}}, "moving_mean_initializer": {"class_name": "Zeros", "config": {}}, "moving_variance_initializer": {"class_name": "Ones", "config": {}}, "beta_regularizer": null, "gamma_regularizer": null, "beta_constraint": null, "gamma_constraint": null}, "inbound_nodes": [[["conv2d_794", 0, 0, {}]]]}, {"name": "batch_normalization_799", "class_name": "BatchNormalization", "config": {"name": "batch_normalization_799", "trainable": false, "axis": 3, "momentum": 0.99, "epsilon": 0.001, "center": true, "scale": false, "beta_initializer": {"class_name": "Zeros", "config": {}}, "gamma_initializer": {"class_name": "Ones", "config": {}}, "moving_mean_initializer": {"class_name": "Zeros", "config": {}}, "moving_variance_initializer": {"class_name": "Ones", "config": {}}, "beta_regularizer": null, "gamma_regularizer": null, "beta_constraint": null, "gamma_constraint": null}, "inbound_nodes": [[["conv2d_799", 0, 0, {}]]]}, {"name": "activation_794", "class_name": "Activation", "config": {"name": "activation_794", "trainable": false, "activation": "relu"}, "inbound_nodes": [[["batch_normalization_794", 0, 0, {}]]]}, {"name": "activation_799", "class_name": "Activation", "config": {"name": "activation_799", "trainable": false, "activation": "relu"}, "inbound_nodes": [[["batch_normalization_799", 0, 0, {}]]]}, {"name": "conv2d_795", "class_name": "Conv2D", "config": {"name": "conv2d_795", "trainable": false, "filters": 160, "kernel_size": [1, 7], "strides": [1, 1], "padding": "same", "data_format": "channels_last", "dilation_rate": [1, 1], "activation": "linear", "use_bias": false, "kernel_initializer": {"class_name": "VarianceScaling", "config": {"scale": 1.0, "mode": "fan_avg", "distribution": "uniform", "seed": null}}, "bias_initializer": {"class_name": "Zeros", "config": {}}, "kernel_regularizer": null, "bias_regularizer": null, "activity_regularizer": null, "kernel_constraint": null, "bias_constraint": null}, "inbound_nodes": [[["activation_794", 0, 0, {}]]]}, {"name": "conv2d_800", "class_name": "Conv2D", "config": {"name": "conv2d_800", "trainable": false, "filters": 160, "kernel_size": [7, 1], "strides": [1, 1], "padding": "same", "data_format": "channels_last", "dilation_rate": [1, 1], "activation": "linear", "use_bias": false, "kernel_initializer": {"class_name": "VarianceScaling", "config": {"scale": 1.0, "mode": "fan_avg", "distribution": "uniform", "seed": null}}, "bias_initializer": {"class_name": "Zeros", "config": {}}, "kernel_regularizer": null, "bias_regularizer": null, "activity_regularizer": null, "kernel_constraint": null, "bias_constraint": null}, "inbound_nodes": [[["activation_799", 0, 0, {}]]]}, {"name": "batch_normalization_795", "class_name": "BatchNormalization", "config": {"name": "batch_normalization_795", "trainable": false, "axis": 3, "momentum": 0.99, "epsilon": 0.001, "center": true, "scale": false, "beta_initializer": {"class_name": "Zeros", "config": {}}, "gamma_initializer": {"class_name": "Ones", "config": {}}, "moving_mean_initializer": {"class_name": "Zeros", "config": {}}, "moving_variance_initializer": {"class_name": "Ones", "config": {}}, "beta_regularizer": null, "gamma_regularizer": null, "beta_constraint": null, "gamma_constraint": null}, "inbound_nodes": [[["conv2d_795", 0, 0, {}]]]}, {"name": "batch_normalization_800", "class_name": "BatchNormalization", "config": {"name": "batch_normalization_800", "trainable": false, "axis": 3, "momentum": 0.99, "epsilon": 0.001, "center": true, "scale": false, "beta_initializer": {"class_name": "Zeros", "config": {}}, "gamma_initializer": {"class_name": "Ones", "config": {}}, "moving_mean_initializer": {"class_name": "Zeros", "config": {}}, "moving_variance_initializer": {"class_name": "Ones", "config": {}}, "beta_regularizer": null, "gamma_regularizer": null, "beta_constraint": null, "gamma_constraint": null}, "inbound_nodes": [[["conv2d_800", 0, 0, {}]]]}, {"name": "activation_795", "class_name": "Activation", "config": {"name": "activation_795", "trainable": false, "activation": "relu"}, "inbound_nodes": [[["batch_normalization_795", 0, 0, {}]]]}, {"name": "activation_800", "class_name": "Activation", "config": {"name": "activation_800", "trainable": false, "activation": "relu"}, "inbound_nodes": [[["batch_normalization_800", 0, 0, {}]]]}, {"name": "average_pooling2d_77", "class_name": "AveragePooling2D", "config": {"name": "average_pooling2d_77", "trainable": false, "pool_size": [3, 3], "padding": "same", "strides": [1, 1], "data_format": "channels_last"}, "inbound_nodes": [[["mixed4", 0, 0, {}]]]}, {"name": "conv2d_793", "class_name": "Conv2D", "config": {"name": "conv2d_793", "trainable": false, "filters": 192, "kernel_size": [1, 1], "strides": [1, 1], "padding": "same", "data_format": "channels_last", "dilation_rate": [1, 1], "activation": "linear", "use_bias": false, "kernel_initializer": {"class_name": "VarianceScaling", "config": {"scale": 1.0, "mode": "fan_avg", "distribution": "uniform", "seed": null}}, "bias_initializer": {"class_name": "Zeros", "config": {}}, "kernel_regularizer": null, "bias_regularizer": null, "activity_regularizer": null, "kernel_constraint": null, "bias_constraint": null}, "inbound_nodes": [[["mixed4", 0, 0, {}]]]}, {"name": "conv2d_796", "class_name": "Conv2D", "config": {"name": "conv2d_796", "trainable": false, "filters": 192, "kernel_size": [7, 1], "strides": [1, 1], "padding": "same", "data_format": "channels_last", "dilation_rate": [1, 1], "activation": "linear", "use_bias": false, "kernel_initializer": {"class_name": "VarianceScaling", "config": {"scale": 1.0, "mode": "fan_avg", "distribution": "uniform", "seed": null}}, "bias_initializer": {"class_name": "Zeros", "config": {}}, "kernel_regularizer": null, "bias_regularizer": null, "activity_regularizer": null, "kernel_constraint": null, "bias_constraint": null}, "inbound_nodes": [[["activation_795", 0, 0, {}]]]}, {"name": "conv2d_801", "class_name": "Conv2D", "config": {"name": "conv2d_801", "trainable": false, "filters": 192, "kernel_size": [1, 7], "strides": [1, 1], "padding": "same", "data_format": "channels_last", "dilation_rate": [1, 1], "activation": "linear", "use_bias": false, "kernel_initializer": {"class_name": "VarianceScaling", "config": {"scale": 1.0, "mode": "fan_avg", "distribution": "uniform", "seed": null}}, "bias_initializer": {"class_name": "Zeros", "config": {}}, "kernel_regularizer": null, "bias_regularizer": null, "activity_regularizer": null, "kernel_constraint": null, "bias_constraint": null}, "inbound_nodes": [[["activation_800", 0, 0, {}]]]}, {"name": "conv2d_802", "class_name": "Conv2D", "config": {"name": "conv2d_802", "trainable": false, "filters": 192, "kernel_size": [1, 1], "strides": [1, 1], "padding": "same", "data_format": "channels_last", "dilation_rate": [1, 1], "activation": "linear", "use_bias": false, "kernel_initializer": {"class_name": "VarianceScaling", "config": {"scale": 1.0, "mode": "fan_avg", "distribution": "uniform", "seed": null}}, "bias_initializer": {"class_name": "Zeros", "config": {}}, "kernel_regularizer": null, "bias_regularizer": null, "activity_regularizer": null, "kernel_constraint": null, "bias_constraint": null}, "inbound_nodes": [[["average_pooling2d_77", 0, 0, {}]]]}, {"name": "batch_normalization_793", "class_name": "BatchNormalization", "config": {"name": "batch_normalization_793", "trainable": false, "axis": 3, "momentum": 0.99, "epsilon": 0.001, "center": true, "scale": false, "beta_initializer": {"class_name": "Zeros", "config": {}}, "gamma_initializer": {"class_name": "Ones", "config": {}}, "moving_mean_initializer": {"class_name": "Zeros", "config": {}}, "moving_variance_initializer": {"class_name": "Ones", "config": {}}, "beta_regularizer": null, "gamma_regularizer": null, "beta_constraint": null, "gamma_constraint": null}, "inbound_nodes": [[["conv2d_793", 0, 0, {}]]]}, {"name": "batch_normalization_796", "class_name": "BatchNormalization", "config": {"name": "batch_normalization_796", "trainable": false, "axis": 3, "momentum": 0.99, "epsilon": 0.001, "center": true, "scale": false, "beta_initializer": {"class_name": "Zeros", "config": {}}, "gamma_initializer": {"class_name": "Ones", "config": {}}, "moving_mean_initializer": {"class_name": "Zeros", "config": {}}, "moving_variance_initializer": {"class_name": "Ones", "config": {}}, "beta_regularizer": null, "gamma_regularizer": null, "beta_constraint": null, "gamma_constraint": null}, "inbound_nodes": [[["conv2d_796", 0, 0, {}]]]}, {"name": "batch_normalization_801", "class_name": "BatchNormalization", "config": {"name": "batch_normalization_801", "trainable": false, "axis": 3, "momentum": 0.99, "epsilon": 0.001, "center": true, "scale": false, "beta_initializer": {"class_name": "Zeros", "config": {}}, "gamma_initializer": {"class_name": "Ones", "config": {}}, "moving_mean_initializer": {"class_name": "Zeros", "config": {}}, "moving_variance_initializer": {"class_name": "Ones", "config": {}}, "beta_regularizer": null, "gamma_regularizer": null, "beta_constraint": null, "gamma_constraint": null}, "inbound_nodes": [[["conv2d_801", 0, 0, {}]]]}, {"name": "batch_normalization_802", "class_name": "BatchNormalization", "config": {"name": "batch_normalization_802", "trainable": false, "axis": 3, "momentum": 0.99, "epsilon": 0.001, "center": true, "scale": false, "beta_initializer": {"class_name": "Zeros", "config": {}}, "gamma_initializer": {"class_name": "Ones", "config": {}}, "moving_mean_initializer": {"class_name": "Zeros", "config": {}}, "moving_variance_initializer": {"class_name": "Ones", "config": {}}, "beta_regularizer": null, "gamma_regularizer": null, "beta_constraint": null, "gamma_constraint": null}, "inbound_nodes": [[["conv2d_802", 0, 0, {}]]]}, {"name": "activation_793", "class_name": "Activation", "config": {"name": "activation_793", "trainable": false, "activation": "relu"}, "inbound_nodes": [[["batch_normalization_793", 0, 0, {}]]]}, {"name": "activation_796", "class_name": "Activation", "config": {"name": "activation_796", "trainable": false, "activation": "relu"}, "inbound_nodes": [[["batch_normalization_796", 0, 0, {}]]]}, {"name": "activation_801", "class_name": "Activation", "config": {"name": "activation_801", "trainable": false, "activation": "relu"}, "inbound_nodes": [[["batch_normalization_801", 0, 0, {}]]]}, {"name": "activation_802", "class_name": "Activation", "config": {"name": "activation_802", "trainable": false, "activation": "relu"}, "inbound_nodes": [[["batch_normalization_802", 0, 0, {}]]]}, {"name": "mixed5", "class_name": "Concatenate", "config": {"name": "mixed5", "trainable": false, "axis": 3}, "inbound_nodes": [[["activation_793", 0, 0, {}], ["activation_796", 0, 0, {}], ["activation_801", 0, 0, {}], ["activation_802", 0, 0, {}]]]}, {"name": "conv2d_807", "class_name": "Conv2D", "config": {"name": "conv2d_807", "trainable": false, "filters": 160, "kernel_size": [1, 1], "strides": [1, 1], "padding": "same", "data_format": "channels_last", "dilation_rate": [1, 1], "activation": "linear", "use_bias": false, "kernel_initializer": {"class_name": "VarianceScaling", "config": {"scale": 1.0, "mode": "fan_avg", "distribution": "uniform", "seed": null}}, "bias_initializer": {"class_name": "Zeros", "config": {}}, "kernel_regularizer": null, "bias_regularizer": null, "activity_regularizer": null, "kernel_constraint": null, "bias_constraint": null}, "inbound_nodes": [[["mixed5", 0, 0, {}]]]}, {"name": "batch_normalization_807", "class_name": "BatchNormalization", "config": {"name": "batch_normalization_807", "trainable": false, "axis": 3, "momentum": 0.99, "epsilon": 0.001, "center": true, "scale": false, "beta_initializer": {"class_name": "Zeros", "config": {}}, "gamma_initializer": {"class_name": "Ones", "config": {}}, "moving_mean_initializer": {"class_name": "Zeros", "config": {}}, "moving_variance_initializer": {"class_name": "Ones", "config": {}}, "beta_regularizer": null, "gamma_regularizer": null, "beta_constraint": null, "gamma_constraint": null}, "inbound_nodes": [[["conv2d_807", 0, 0, {}]]]}, {"name": "activation_807", "class_name": "Activation", "config": {"name": "activation_807", "trainable": false, "activation": "relu"}, "inbound_nodes": [[["batch_normalization_807", 0, 0, {}]]]}, {"name": "conv2d_808", "class_name": "Conv2D", "config": {"name": "conv2d_808", "trainable": false, "filters": 160, "kernel_size": [7, 1], "strides": [1, 1], "padding": "same", "data_format": "channels_last", "dilation_rate": [1, 1], "activation": "linear", "use_bias": false, "kernel_initializer": {"class_name": "VarianceScaling", "config": {"scale": 1.0, "mode": "fan_avg", "distribution": "uniform", "seed": null}}, "bias_initializer": {"class_name": "Zeros", "config": {}}, "kernel_regularizer": null, "bias_regularizer": null, "activity_regularizer": null, "kernel_constraint": null, "bias_constraint": null}, "inbound_nodes": [[["activation_807", 0, 0, {}]]]}, {"name": "batch_normalization_808", "class_name": "BatchNormalization", "config": {"name": "batch_normalization_808", "trainable": false, "axis": 3, "momentum": 0.99, "epsilon": 0.001, "center": true, "scale": false, "beta_initializer": {"class_name": "Zeros", "config": {}}, "gamma_initializer": {"class_name": "Ones", "config": {}}, "moving_mean_initializer": {"class_name": "Zeros", "config": {}}, "moving_variance_initializer": {"class_name": "Ones", "config": {}}, "beta_regularizer": null, "gamma_regularizer": null, "beta_constraint": null, "gamma_constraint": null}, "inbound_nodes": [[["conv2d_808", 0, 0, {}]]]}, {"name": "activation_808", "class_name": "Activation", "config": {"name": "activation_808", "trainable": false, "activation": "relu"}, "inbound_nodes": [[["batch_normalization_808", 0, 0, {}]]]}, {"name": "conv2d_804", "class_name": "Conv2D", "config": {"name": "conv2d_804", "trainable": false, "filters": 160, "kernel_size": [1, 1], "strides": [1, 1], "padding": "same", "data_format": "channels_last", "dilation_rate": [1, 1], "activation": "linear", "use_bias": false, "kernel_initializer": {"class_name": "VarianceScaling", "config": {"scale": 1.0, "mode": "fan_avg", "distribution": "uniform", "seed": null}}, "bias_initializer": {"class_name": "Zeros", "config": {}}, "kernel_regularizer": null, "bias_regularizer": null, "activity_regularizer": null, "kernel_constraint": null, "bias_constraint": null}, "inbound_nodes": [[["mixed5", 0, 0, {}]]]}, {"name": "conv2d_809", "class_name": "Conv2D", "config": {"name": "conv2d_809", "trainable": false, "filters": 160, "kernel_size": [1, 7], "strides": [1, 1], "padding": "same", "data_format": "channels_last", "dilation_rate": [1, 1], "activation": "linear", "use_bias": false, "kernel_initializer": {"class_name": "VarianceScaling", "config": {"scale": 1.0, "mode": "fan_avg", "distribution": "uniform", "seed": null}}, "bias_initializer": {"class_name": "Zeros", "config": {}}, "kernel_regularizer": null, "bias_regularizer": null, "activity_regularizer": null, "kernel_constraint": null, "bias_constraint": null}, "inbound_nodes": [[["activation_808", 0, 0, {}]]]}, {"name": "batch_normalization_804", "class_name": "BatchNormalization", "config": {"name": "batch_normalization_804", "trainable": false, "axis": 3, "momentum": 0.99, "epsilon": 0.001, "center": true, "scale": false, "beta_initializer": {"class_name": "Zeros", "config": {}}, "gamma_initializer": {"class_name": "Ones", "config": {}}, "moving_mean_initializer": {"class_name": "Zeros", "config": {}}, "moving_variance_initializer": {"class_name": "Ones", "config": {}}, "beta_regularizer": null, "gamma_regularizer": null, "beta_constraint": null, "gamma_constraint": null}, "inbound_nodes": [[["conv2d_804", 0, 0, {}]]]}, {"name": "batch_normalization_809", "class_name": "BatchNormalization", "config": {"name": "batch_normalization_809", "trainable": false, "axis": 3, "momentum": 0.99, "epsilon": 0.001, "center": true, "scale": false, "beta_initializer": {"class_name": "Zeros", "config": {}}, "gamma_initializer": {"class_name": "Ones", "config": {}}, "moving_mean_initializer": {"class_name": "Zeros", "config": {}}, "moving_variance_initializer": {"class_name": "Ones", "config": {}}, "beta_regularizer": null, "gamma_regularizer": null, "beta_constraint": null, "gamma_constraint": null}, "inbound_nodes": [[["conv2d_809", 0, 0, {}]]]}, {"name": "activation_804", "class_name": "Activation", "config": {"name": "activation_804", "trainable": false, "activation": "relu"}, "inbound_nodes": [[["batch_normalization_804", 0, 0, {}]]]}, {"name": "activation_809", "class_name": "Activation", "config": {"name": "activation_809", "trainable": false, "activation": "relu"}, "inbound_nodes": [[["batch_normalization_809", 0, 0, {}]]]}, {"name": "conv2d_805", "class_name": "Conv2D", "config": {"name": "conv2d_805", "trainable": false, "filters": 160, "kernel_size": [1, 7], "strides": [1, 1], "padding": "same", "data_format": "channels_last", "dilation_rate": [1, 1], "activation": "linear", "use_bias": false, "kernel_initializer": {"class_name": "VarianceScaling", "config": {"scale": 1.0, "mode": "fan_avg", "distribution": "uniform", "seed": null}}, "bias_initializer": {"class_name": "Zeros", "config": {}}, "kernel_regularizer": null, "bias_regularizer": null, "activity_regularizer": null, "kernel_constraint": null, "bias_constraint": null}, "inbound_nodes": [[["activation_804", 0, 0, {}]]]}, {"name": "conv2d_810", "class_name": "Conv2D", "config": {"name": "conv2d_810", "trainable": false, "filters": 160, "kernel_size": [7, 1], "strides": [1, 1], "padding": "same", "data_format": "channels_last", "dilation_rate": [1, 1], "activation": "linear", "use_bias": false, "kernel_initializer": {"class_name": "VarianceScaling", "config": {"scale": 1.0, "mode": "fan_avg", "distribution": "uniform", "seed": null}}, "bias_initializer": {"class_name": "Zeros", "config": {}}, "kernel_regularizer": null, "bias_regularizer": null, "activity_regularizer": null, "kernel_constraint": null, "bias_constraint": null}, "inbound_nodes": [[["activation_809", 0, 0, {}]]]}, {"name": "batch_normalization_805", "class_name": "BatchNormalization", "config": {"name": "batch_normalization_805", "trainable": false, "axis": 3, "momentum": 0.99, "epsilon": 0.001, "center": true, "scale": false, "beta_initializer": {"class_name": "Zeros", "config": {}}, "gamma_initializer": {"class_name": "Ones", "config": {}}, "moving_mean_initializer": {"class_name": "Zeros", "config": {}}, "moving_variance_initializer": {"class_name": "Ones", "config": {}}, "beta_regularizer": null, "gamma_regularizer": null, "beta_constraint": null, "gamma_constraint": null}, "inbound_nodes": [[["conv2d_805", 0, 0, {}]]]}, {"name": "batch_normalization_810", "class_name": "BatchNormalization", "config": {"name": "batch_normalization_810", "trainable": false, "axis": 3, "momentum": 0.99, "epsilon": 0.001, "center": true, "scale": false, "beta_initializer": {"class_name": "Zeros", "config": {}}, "gamma_initializer": {"class_name": "Ones", "config": {}}, "moving_mean_initializer": {"class_name": "Zeros", "config": {}}, "moving_variance_initializer": {"class_name": "Ones", "config": {}}, "beta_regularizer": null, "gamma_regularizer": null, "beta_constraint": null, "gamma_constraint": null}, "inbound_nodes": [[["conv2d_810", 0, 0, {}]]]}, {"name": "activation_805", "class_name": "Activation", "config": {"name": "activation_805", "trainable": false, "activation": "relu"}, "inbound_nodes": [[["batch_normalization_805", 0, 0, {}]]]}, {"name": "activation_810", "class_name": "Activation", "config": {"name": "activation_810", "trainable": false, "activation": "relu"}, "inbound_nodes": [[["batch_normalization_810", 0, 0, {}]]]}, {"name": "average_pooling2d_78", "class_name": "AveragePooling2D", "config": {"name": "average_pooling2d_78", "trainable": false, "pool_size": [3, 3], "padding": "same", "strides": [1, 1], "data_format": "channels_last"}, "inbound_nodes": [[["mixed5", 0, 0, {}]]]}, {"name": "conv2d_803", "class_name": "Conv2D", "config": {"name": "conv2d_803", "trainable": false, "filters": 192, "kernel_size": [1, 1], "strides": [1, 1], "padding": "same", "data_format": "channels_last", "dilation_rate": [1, 1], "activation": "linear", "use_bias": false, "kernel_initializer": {"class_name": "VarianceScaling", "config": {"scale": 1.0, "mode": "fan_avg", "distribution": "uniform", "seed": null}}, "bias_initializer": {"class_name": "Zeros", "config": {}}, "kernel_regularizer": null, "bias_regularizer": null, "activity_regularizer": null, "kernel_constraint": null, "bias_constraint": null}, "inbound_nodes": [[["mixed5", 0, 0, {}]]]}, {"name": "conv2d_806", "class_name": "Conv2D", "config": {"name": "conv2d_806", "trainable": false, "filters": 192, "kernel_size": [7, 1], "strides": [1, 1], "padding": "same", "data_format": "channels_last", "dilation_rate": [1, 1], "activation": "linear", "use_bias": false, "kernel_initializer": {"class_name": "VarianceScaling", "config": {"scale": 1.0, "mode": "fan_avg", "distribution": "uniform", "seed": null}}, "bias_initializer": {"class_name": "Zeros", "config": {}}, "kernel_regularizer": null, "bias_regularizer": null, "activity_regularizer": null, "kernel_constraint": null, "bias_constraint": null}, "inbound_nodes": [[["activation_805", 0, 0, {}]]]}, {"name": "conv2d_811", "class_name": "Conv2D", "config": {"name": "conv2d_811", "trainable": false, "filters": 192, "kernel_size": [1, 7], "strides": [1, 1], "padding": "same", "data_format": "channels_last", "dilation_rate": [1, 1], "activation": "linear", "use_bias": false, "kernel_initializer": {"class_name": "VarianceScaling", "config": {"scale": 1.0, "mode": "fan_avg", "distribution": "uniform", "seed": null}}, "bias_initializer": {"class_name": "Zeros", "config": {}}, "kernel_regularizer": null, "bias_regularizer": null, "activity_regularizer": null, "kernel_constraint": null, "bias_constraint": null}, "inbound_nodes": [[["activation_810", 0, 0, {}]]]}, {"name": "conv2d_812", "class_name": "Conv2D", "config": {"name": "conv2d_812", "trainable": false, "filters": 192, "kernel_size": [1, 1], "strides": [1, 1], "padding": "same", "data_format": "channels_last", "dilation_rate": [1, 1], "activation": "linear", "use_bias": false, "kernel_initializer": {"class_name": "VarianceScaling", "config": {"scale": 1.0, "mode": "fan_avg", "distribution": "uniform", "seed": null}}, "bias_initializer": {"class_name": "Zeros", "config": {}}, "kernel_regularizer": null, "bias_regularizer": null, "activity_regularizer": null, "kernel_constraint": null, "bias_constraint": null}, "inbound_nodes": [[["average_pooling2d_78", 0, 0, {}]]]}, {"name": "batch_normalization_803", "class_name": "BatchNormalization", "config": {"name": "batch_normalization_803", "trainable": false, "axis": 3, "momentum": 0.99, "epsilon": 0.001, "center": true, "scale": false, "beta_initializer": {"class_name": "Zeros", "config": {}}, "gamma_initializer": {"class_name": "Ones", "config": {}}, "moving_mean_initializer": {"class_name": "Zeros", "config": {}}, "moving_variance_initializer": {"class_name": "Ones", "config": {}}, "beta_regularizer": null, "gamma_regularizer": null, "beta_constraint": null, "gamma_constraint": null}, "inbound_nodes": [[["conv2d_803", 0, 0, {}]]]}, {"name": "batch_normalization_806", "class_name": "BatchNormalization", "config": {"name": "batch_normalization_806", "trainable": false, "axis": 3, "momentum": 0.99, "epsilon": 0.001, "center": true, "scale": false, "beta_initializer": {"class_name": "Zeros", "config": {}}, "gamma_initializer": {"class_name": "Ones", "config": {}}, "moving_mean_initializer": {"class_name": "Zeros", "config": {}}, "moving_variance_initializer": {"class_name": "Ones", "config": {}}, "beta_regularizer": null, "gamma_regularizer": null, "beta_constraint": null, "gamma_constraint": null}, "inbound_nodes": [[["conv2d_806", 0, 0, {}]]]}, {"name": "batch_normalization_811", "class_name": "BatchNormalization", "config": {"name": "batch_normalization_811", "trainable": false, "axis": 3, "momentum": 0.99, "epsilon": 0.001, "center": true, "scale": false, "beta_initializer": {"class_name": "Zeros", "config": {}}, "gamma_initializer": {"class_name": "Ones", "config": {}}, "moving_mean_initializer": {"class_name": "Zeros", "config": {}}, "moving_variance_initializer": {"class_name": "Ones", "config": {}}, "beta_regularizer": null, "gamma_regularizer": null, "beta_constraint": null, "gamma_constraint": null}, "inbound_nodes": [[["conv2d_811", 0, 0, {}]]]}, {"name": "batch_normalization_812", "class_name": "BatchNormalization", "config": {"name": "batch_normalization_812", "trainable": false, "axis": 3, "momentum": 0.99, "epsilon": 0.001, "center": true, "scale": false, "beta_initializer": {"class_name": "Zeros", "config": {}}, "gamma_initializer": {"class_name": "Ones", "config": {}}, "moving_mean_initializer": {"class_name": "Zeros", "config": {}}, "moving_variance_initializer": {"class_name": "Ones", "config": {}}, "beta_regularizer": null, "gamma_regularizer": null, "beta_constraint": null, "gamma_constraint": null}, "inbound_nodes": [[["conv2d_812", 0, 0, {}]]]}, {"name": "activation_803", "class_name": "Activation", "config": {"name": "activation_803", "trainable": false, "activation": "relu"}, "inbound_nodes": [[["batch_normalization_803", 0, 0, {}]]]}, {"name": "activation_806", "class_name": "Activation", "config": {"name": "activation_806", "trainable": false, "activation": "relu"}, "inbound_nodes": [[["batch_normalization_806", 0, 0, {}]]]}, {"name": "activation_811", "class_name": "Activation", "config": {"name": "activation_811", "trainable": false, "activation": "relu"}, "inbound_nodes": [[["batch_normalization_811", 0, 0, {}]]]}, {"name": "activation_812", "class_name": "Activation", "config": {"name": "activation_812", "trainable": false, "activation": "relu"}, "inbound_nodes": [[["batch_normalization_812", 0, 0, {}]]]}, {"name": "mixed6", "class_name": "Concatenate", "config": {"name": "mixed6", "trainable": false, "axis": 3}, "inbound_nodes": [[["activation_803", 0, 0, {}], ["activation_806", 0, 0, {}], ["activation_811", 0, 0, {}], ["activation_812", 0, 0, {}]]]}, {"name": "conv2d_817", "class_name": "Conv2D", "config": {"name": "conv2d_817", "trainable": false, "filters": 192, "kernel_size": [1, 1], "strides": [1, 1], "padding": "same", "data_format": "channels_last", "dilation_rate": [1, 1], "activation": "linear", "use_bias": false, "kernel_initializer": {"class_name": "VarianceScaling", "config": {"scale": 1.0, "mode": "fan_avg", "distribution": "uniform", "seed": null}}, "bias_initializer": {"class_name": "Zeros", "config": {}}, "kernel_regularizer": null, "bias_regularizer": null, "activity_regularizer": null, "kernel_constraint": null, "bias_constraint": null}, "inbound_nodes": [[["mixed6", 0, 0, {}]]]}, {"name": "batch_normalization_817", "class_name": "BatchNormalization", "config": {"name": "batch_normalization_817", "trainable": false, "axis": 3, "momentum": 0.99, "epsilon": 0.001, "center": true, "scale": false, "beta_initializer": {"class_name": "Zeros", "config": {}}, "gamma_initializer": {"class_name": "Ones", "config": {}}, "moving_mean_initializer": {"class_name": "Zeros", "config": {}}, "moving_variance_initializer": {"class_name": "Ones", "config": {}}, "beta_regularizer": null, "gamma_regularizer": null, "beta_constraint": null, "gamma_constraint": null}, "inbound_nodes": [[["conv2d_817", 0, 0, {}]]]}, {"name": "activation_817", "class_name": "Activation", "config": {"name": "activation_817", "trainable": false, "activation": "relu"}, "inbound_nodes": [[["batch_normalization_817", 0, 0, {}]]]}, {"name": "conv2d_818", "class_name": "Conv2D", "config": {"name": "conv2d_818", "trainable": false, "filters": 192, "kernel_size": [7, 1], "strides": [1, 1], "padding": "same", "data_format": "channels_last", "dilation_rate": [1, 1], "activation": "linear", "use_bias": false, "kernel_initializer": {"class_name": "VarianceScaling", "config": {"scale": 1.0, "mode": "fan_avg", "distribution": "uniform", "seed": null}}, "bias_initializer": {"class_name": "Zeros", "config": {}}, "kernel_regularizer": null, "bias_regularizer": null, "activity_regularizer": null, "kernel_constraint": null, "bias_constraint": null}, "inbound_nodes": [[["activation_817", 0, 0, {}]]]}, {"name": "batch_normalization_818", "class_name": "BatchNormalization", "config": {"name": "batch_normalization_818", "trainable": false, "axis": 3, "momentum": 0.99, "epsilon": 0.001, "center": true, "scale": false, "beta_initializer": {"class_name": "Zeros", "config": {}}, "gamma_initializer": {"class_name": "Ones", "config": {}}, "moving_mean_initializer": {"class_name": "Zeros", "config": {}}, "moving_variance_initializer": {"class_name": "Ones", "config": {}}, "beta_regularizer": null, "gamma_regularizer": null, "beta_constraint": null, "gamma_constraint": null}, "inbound_nodes": [[["conv2d_818", 0, 0, {}]]]}, {"name": "activation_818", "class_name": "Activation", "config": {"name": "activation_818", "trainable": false, "activation": "relu"}, "inbound_nodes": [[["batch_normalization_818", 0, 0, {}]]]}, {"name": "conv2d_814", "class_name": "Conv2D", "config": {"name": "conv2d_814", "trainable": false, "filters": 192, "kernel_size": [1, 1], "strides": [1, 1], "padding": "same", "data_format": "channels_last", "dilation_rate": [1, 1], "activation": "linear", "use_bias": false, "kernel_initializer": {"class_name": "VarianceScaling", "config": {"scale": 1.0, "mode": "fan_avg", "distribution": "uniform", "seed": null}}, "bias_initializer": {"class_name": "Zeros", "config": {}}, "kernel_regularizer": null, "bias_regularizer": null, "activity_regularizer": null, "kernel_constraint": null, "bias_constraint": null}, "inbound_nodes": [[["mixed6", 0, 0, {}]]]}, {"name": "conv2d_819", "class_name": "Conv2D", "config": {"name": "conv2d_819", "trainable": false, "filters": 192, "kernel_size": [1, 7], "strides": [1, 1], "padding": "same", "data_format": "channels_last", "dilation_rate": [1, 1], "activation": "linear", "use_bias": false, "kernel_initializer": {"class_name": "VarianceScaling", "config": {"scale": 1.0, "mode": "fan_avg", "distribution": "uniform", "seed": null}}, "bias_initializer": {"class_name": "Zeros", "config": {}}, "kernel_regularizer": null, "bias_regularizer": null, "activity_regularizer": null, "kernel_constraint": null, "bias_constraint": null}, "inbound_nodes": [[["activation_818", 0, 0, {}]]]}, {"name": "batch_normalization_814", "class_name": "BatchNormalization", "config": {"name": "batch_normalization_814", "trainable": false, "axis": 3, "momentum": 0.99, "epsilon": 0.001, "center": true, "scale": false, "beta_initializer": {"class_name": "Zeros", "config": {}}, "gamma_initializer": {"class_name": "Ones", "config": {}}, "moving_mean_initializer": {"class_name": "Zeros", "config": {}}, "moving_variance_initializer": {"class_name": "Ones", "config": {}}, "beta_regularizer": null, "gamma_regularizer": null, "beta_constraint": null, "gamma_constraint": null}, "inbound_nodes": [[["conv2d_814", 0, 0, {}]]]}, {"name": "batch_normalization_819", "class_name": "BatchNormalization", "config": {"name": "batch_normalization_819", "trainable": false, "axis": 3, "momentum": 0.99, "epsilon": 0.001, "center": true, "scale": false, "beta_initializer": {"class_name": "Zeros", "config": {}}, "gamma_initializer": {"class_name": "Ones", "config": {}}, "moving_mean_initializer": {"class_name": "Zeros", "config": {}}, "moving_variance_initializer": {"class_name": "Ones", "config": {}}, "beta_regularizer": null, "gamma_regularizer": null, "beta_constraint": null, "gamma_constraint": null}, "inbound_nodes": [[["conv2d_819", 0, 0, {}]]]}, {"name": "activation_814", "class_name": "Activation", "config": {"name": "activation_814", "trainable": false, "activation": "relu"}, "inbound_nodes": [[["batch_normalization_814", 0, 0, {}]]]}, {"name": "activation_819", "class_name": "Activation", "config": {"name": "activation_819", "trainable": false, "activation": "relu"}, "inbound_nodes": [[["batch_normalization_819", 0, 0, {}]]]}, {"name": "conv2d_815", "class_name": "Conv2D", "config": {"name": "conv2d_815", "trainable": false, "filters": 192, "kernel_size": [1, 7], "strides": [1, 1], "padding": "same", "data_format": "channels_last", "dilation_rate": [1, 1], "activation": "linear", "use_bias": false, "kernel_initializer": {"class_name": "VarianceScaling", "config": {"scale": 1.0, "mode": "fan_avg", "distribution": "uniform", "seed": null}}, "bias_initializer": {"class_name": "Zeros", "config": {}}, "kernel_regularizer": null, "bias_regularizer": null, "activity_regularizer": null, "kernel_constraint": null, "bias_constraint": null}, "inbound_nodes": [[["activation_814", 0, 0, {}]]]}, {"name": "conv2d_820", "class_name": "Conv2D", "config": {"name": "conv2d_820", "trainable": false, "filters": 192, "kernel_size": [7, 1], "strides": [1, 1], "padding": "same", "data_format": "channels_last", "dilation_rate": [1, 1], "activation": "linear", "use_bias": false, "kernel_initializer": {"class_name": "VarianceScaling", "config": {"scale": 1.0, "mode": "fan_avg", "distribution": "uniform", "seed": null}}, "bias_initializer": {"class_name": "Zeros", "config": {}}, "kernel_regularizer": null, "bias_regularizer": null, "activity_regularizer": null, "kernel_constraint": null, "bias_constraint": null}, "inbound_nodes": [[["activation_819", 0, 0, {}]]]}, {"name": "batch_normalization_815", "class_name": "BatchNormalization", "config": {"name": "batch_normalization_815", "trainable": false, "axis": 3, "momentum": 0.99, "epsilon": 0.001, "center": true, "scale": false, "beta_initializer": {"class_name": "Zeros", "config": {}}, "gamma_initializer": {"class_name": "Ones", "config": {}}, "moving_mean_initializer": {"class_name": "Zeros", "config": {}}, "moving_variance_initializer": {"class_name": "Ones", "config": {}}, "beta_regularizer": null, "gamma_regularizer": null, "beta_constraint": null, "gamma_constraint": null}, "inbound_nodes": [[["conv2d_815", 0, 0, {}]]]}, {"name": "batch_normalization_820", "class_name": "BatchNormalization", "config": {"name": "batch_normalization_820", "trainable": false, "axis": 3, "momentum": 0.99, "epsilon": 0.001, "center": true, "scale": false, "beta_initializer": {"class_name": "Zeros", "config": {}}, "gamma_initializer": {"class_name": "Ones", "config": {}}, "moving_mean_initializer": {"class_name": "Zeros", "config": {}}, "moving_variance_initializer": {"class_name": "Ones", "config": {}}, "beta_regularizer": null, "gamma_regularizer": null, "beta_constraint": null, "gamma_constraint": null}, "inbound_nodes": [[["conv2d_820", 0, 0, {}]]]}, {"name": "activation_815", "class_name": "Activation", "config": {"name": "activation_815", "trainable": false, "activation": "relu"}, "inbound_nodes": [[["batch_normalization_815", 0, 0, {}]]]}, {"name": "activation_820", "class_name": "Activation", "config": {"name": "activation_820", "trainable": false, "activation": "relu"}, "inbound_nodes": [[["batch_normalization_820", 0, 0, {}]]]}, {"name": "average_pooling2d_79", "class_name": "AveragePooling2D", "config": {"name": "average_pooling2d_79", "trainable": false, "pool_size": [3, 3], "padding": "same", "strides": [1, 1], "data_format": "channels_last"}, "inbound_nodes": [[["mixed6", 0, 0, {}]]]}, {"name": "conv2d_813", "class_name": "Conv2D", "config": {"name": "conv2d_813", "trainable": false, "filters": 192, "kernel_size": [1, 1], "strides": [1, 1], "padding": "same", "data_format": "channels_last", "dilation_rate": [1, 1], "activation": "linear", "use_bias": false, "kernel_initializer": {"class_name": "VarianceScaling", "config": {"scale": 1.0, "mode": "fan_avg", "distribution": "uniform", "seed": null}}, "bias_initializer": {"class_name": "Zeros", "config": {}}, "kernel_regularizer": null, "bias_regularizer": null, "activity_regularizer": null, "kernel_constraint": null, "bias_constraint": null}, "inbound_nodes": [[["mixed6", 0, 0, {}]]]}, {"name": "conv2d_816", "class_name": "Conv2D", "config": {"name": "conv2d_816", "trainable": false, "filters": 192, "kernel_size": [7, 1], "strides": [1, 1], "padding": "same", "data_format": "channels_last", "dilation_rate": [1, 1], "activation": "linear", "use_bias": false, "kernel_initializer": {"class_name": "VarianceScaling", "config": {"scale": 1.0, "mode": "fan_avg", "distribution": "uniform", "seed": null}}, "bias_initializer": {"class_name": "Zeros", "config": {}}, "kernel_regularizer": null, "bias_regularizer": null, "activity_regularizer": null, "kernel_constraint": null, "bias_constraint": null}, "inbound_nodes": [[["activation_815", 0, 0, {}]]]}, {"name": "conv2d_821", "class_name": "Conv2D", "config": {"name": "conv2d_821", "trainable": false, "filters": 192, "kernel_size": [1, 7], "strides": [1, 1], "padding": "same", "data_format": "channels_last", "dilation_rate": [1, 1], "activation": "linear", "use_bias": false, "kernel_initializer": {"class_name": "VarianceScaling", "config": {"scale": 1.0, "mode": "fan_avg", "distribution": "uniform", "seed": null}}, "bias_initializer": {"class_name": "Zeros", "config": {}}, "kernel_regularizer": null, "bias_regularizer": null, "activity_regularizer": null, "kernel_constraint": null, "bias_constraint": null}, "inbound_nodes": [[["activation_820", 0, 0, {}]]]}, {"name": "conv2d_822", "class_name": "Conv2D", "config": {"name": "conv2d_822", "trainable": false, "filters": 192, "kernel_size": [1, 1], "strides": [1, 1], "padding": "same", "data_format": "channels_last", "dilation_rate": [1, 1], "activation": "linear", "use_bias": false, "kernel_initializer": {"class_name": "VarianceScaling", "config": {"scale": 1.0, "mode": "fan_avg", "distribution": "uniform", "seed": null}}, "bias_initializer": {"class_name": "Zeros", "config": {}}, "kernel_regularizer": null, "bias_regularizer": null, "activity_regularizer": null, "kernel_constraint": null, "bias_constraint": null}, "inbound_nodes": [[["average_pooling2d_79", 0, 0, {}]]]}, {"name": "batch_normalization_813", "class_name": "BatchNormalization", "config": {"name": "batch_normalization_813", "trainable": false, "axis": 3, "momentum": 0.99, "epsilon": 0.001, "center": true, "scale": false, "beta_initializer": {"class_name": "Zeros", "config": {}}, "gamma_initializer": {"class_name": "Ones", "config": {}}, "moving_mean_initializer": {"class_name": "Zeros", "config": {}}, "moving_variance_initializer": {"class_name": "Ones", "config": {}}, "beta_regularizer": null, "gamma_regularizer": null, "beta_constraint": null, "gamma_constraint": null}, "inbound_nodes": [[["conv2d_813", 0, 0, {}]]]}, {"name": "batch_normalization_816", "class_name": "BatchNormalization", "config": {"name": "batch_normalization_816", "trainable": false, "axis": 3, "momentum": 0.99, "epsilon": 0.001, "center": true, "scale": false, "beta_initializer": {"class_name": "Zeros", "config": {}}, "gamma_initializer": {"class_name": "Ones", "config": {}}, "moving_mean_initializer": {"class_name": "Zeros", "config": {}}, "moving_variance_initializer": {"class_name": "Ones", "config": {}}, "beta_regularizer": null, "gamma_regularizer": null, "beta_constraint": null, "gamma_constraint": null}, "inbound_nodes": [[["conv2d_816", 0, 0, {}]]]}, {"name": "batch_normalization_821", "class_name": "BatchNormalization", "config": {"name": "batch_normalization_821", "trainable": false, "axis": 3, "momentum": 0.99, "epsilon": 0.001, "center": true, "scale": false, "beta_initializer": {"class_name": "Zeros", "config": {}}, "gamma_initializer": {"class_name": "Ones", "config": {}}, "moving_mean_initializer": {"class_name": "Zeros", "config": {}}, "moving_variance_initializer": {"class_name": "Ones", "config": {}}, "beta_regularizer": null, "gamma_regularizer": null, "beta_constraint": null, "gamma_constraint": null}, "inbound_nodes": [[["conv2d_821", 0, 0, {}]]]}, {"name": "batch_normalization_822", "class_name": "BatchNormalization", "config": {"name": "batch_normalization_822", "trainable": false, "axis": 3, "momentum": 0.99, "epsilon": 0.001, "center": true, "scale": false, "beta_initializer": {"class_name": "Zeros", "config": {}}, "gamma_initializer": {"class_name": "Ones", "config": {}}, "moving_mean_initializer": {"class_name": "Zeros", "config": {}}, "moving_variance_initializer": {"class_name": "Ones", "config": {}}, "beta_regularizer": null, "gamma_regularizer": null, "beta_constraint": null, "gamma_constraint": null}, "inbound_nodes": [[["conv2d_822", 0, 0, {}]]]}, {"name": "activation_813", "class_name": "Activation", "config": {"name": "activation_813", "trainable": false, "activation": "relu"}, "inbound_nodes": [[["batch_normalization_813", 0, 0, {}]]]}, {"name": "activation_816", "class_name": "Activation", "config": {"name": "activation_816", "trainable": false, "activation": "relu"}, "inbound_nodes": [[["batch_normalization_816", 0, 0, {}]]]}, {"name": "activation_821", "class_name": "Activation", "config": {"name": "activation_821", "trainable": false, "activation": "relu"}, "inbound_nodes": [[["batch_normalization_821", 0, 0, {}]]]}, {"name": "activation_822", "class_name": "Activation", "config": {"name": "activation_822", "trainable": false, "activation": "relu"}, "inbound_nodes": [[["batch_normalization_822", 0, 0, {}]]]}, {"name": "mixed7", "class_name": "Concatenate", "config": {"name": "mixed7", "trainable": false, "axis": 3}, "inbound_nodes": [[["activation_813", 0, 0, {}], ["activation_816", 0, 0, {}], ["activation_821", 0, 0, {}], ["activation_822", 0, 0, {}]]]}, {"name": "conv2d_825", "class_name": "Conv2D", "config": {"name": "conv2d_825", "trainable": false, "filters": 192, "kernel_size": [1, 1], "strides": [1, 1], "padding": "same", "data_format": "channels_last", "dilation_rate": [1, 1], "activation": "linear", "use_bias": false, "kernel_initializer": {"class_name": "VarianceScaling", "config": {"scale": 1.0, "mode": "fan_avg", "distribution": "uniform", "seed": null}}, "bias_initializer": {"class_name": "Zeros", "config": {}}, "kernel_regularizer": null, "bias_regularizer": null, "activity_regularizer": null, "kernel_constraint": null, "bias_constraint": null}, "inbound_nodes": [[["mixed7", 0, 0, {}]]]}, {"name": "batch_normalization_825", "class_name": "BatchNormalization", "config": {"name": "batch_normalization_825", "trainable": false, "axis": 3, "momentum": 0.99, "epsilon": 0.001, "center": true, "scale": false, "beta_initializer": {"class_name": "Zeros", "config": {}}, "gamma_initializer": {"class_name": "Ones", "config": {}}, "moving_mean_initializer": {"class_name": "Zeros", "config": {}}, "moving_variance_initializer": {"class_name": "Ones", "config": {}}, "beta_regularizer": null, "gamma_regularizer": null, "beta_constraint": null, "gamma_constraint": null}, "inbound_nodes": [[["conv2d_825", 0, 0, {}]]]}, {"name": "activation_825", "class_name": "Activation", "config": {"name": "activation_825", "trainable": false, "activation": "relu"}, "inbound_nodes": [[["batch_normalization_825", 0, 0, {}]]]}, {"name": "conv2d_826", "class_name": "Conv2D", "config": {"name": "conv2d_826", "trainable": false, "filters": 192, "kernel_size": [1, 7], "strides": [1, 1], "padding": "same", "data_format": "channels_last", "dilation_rate": [1, 1], "activation": "linear", "use_bias": false, "kernel_initializer": {"class_name": "VarianceScaling", "config": {"scale": 1.0, "mode": "fan_avg", "distribution": "uniform", "seed": null}}, "bias_initializer": {"class_name": "Zeros", "config": {}}, "kernel_regularizer": null, "bias_regularizer": null, "activity_regularizer": null, "kernel_constraint": null, "bias_constraint": null}, "inbound_nodes": [[["activation_825", 0, 0, {}]]]}, {"name": "batch_normalization_826", "class_name": "BatchNormalization", "config": {"name": "batch_normalization_826", "trainable": false, "axis": 3, "momentum": 0.99, "epsilon": 0.001, "center": true, "scale": false, "beta_initializer": {"class_name": "Zeros", "config": {}}, "gamma_initializer": {"class_name": "Ones", "config": {}}, "moving_mean_initializer": {"class_name": "Zeros", "config": {}}, "moving_variance_initializer": {"class_name": "Ones", "config": {}}, "beta_regularizer": null, "gamma_regularizer": null, "beta_constraint": null, "gamma_constraint": null}, "inbound_nodes": [[["conv2d_826", 0, 0, {}]]]}, {"name": "activation_826", "class_name": "Activation", "config": {"name": "activation_826", "trainable": false, "activation": "relu"}, "inbound_nodes": [[["batch_normalization_826", 0, 0, {}]]]}, {"name": "conv2d_823", "class_name": "Conv2D", "config": {"name": "conv2d_823", "trainable": false, "filters": 192, "kernel_size": [1, 1], "strides": [1, 1], "padding": "same", "data_format": "channels_last", "dilation_rate": [1, 1], "activation": "linear", "use_bias": false, "kernel_initializer": {"class_name": "VarianceScaling", "config": {"scale": 1.0, "mode": "fan_avg", "distribution": "uniform", "seed": null}}, "bias_initializer": {"class_name": "Zeros", "config": {}}, "kernel_regularizer": null, "bias_regularizer": null, "activity_regularizer": null, "kernel_constraint": null, "bias_constraint": null}, "inbound_nodes": [[["mixed7", 0, 0, {}]]]}, {"name": "conv2d_827", "class_name": "Conv2D", "config": {"name": "conv2d_827", "trainable": false, "filters": 192, "kernel_size": [7, 1], "strides": [1, 1], "padding": "same", "data_format": "channels_last", "dilation_rate": [1, 1], "activation": "linear", "use_bias": false, "kernel_initializer": {"class_name": "VarianceScaling", "config": {"scale": 1.0, "mode": "fan_avg", "distribution": "uniform", "seed": null}}, "bias_initializer": {"class_name": "Zeros", "config": {}}, "kernel_regularizer": null, "bias_regularizer": null, "activity_regularizer": null, "kernel_constraint": null, "bias_constraint": null}, "inbound_nodes": [[["activation_826", 0, 0, {}]]]}, {"name": "batch_normalization_823", "class_name": "BatchNormalization", "config": {"name": "batch_normalization_823", "trainable": false, "axis": 3, "momentum": 0.99, "epsilon": 0.001, "center": true, "scale": false, "beta_initializer": {"class_name": "Zeros", "config": {}}, "gamma_initializer": {"class_name": "Ones", "config": {}}, "moving_mean_initializer": {"class_name": "Zeros", "config": {}}, "moving_variance_initializer": {"class_name": "Ones", "config": {}}, "beta_regularizer": null, "gamma_regularizer": null, "beta_constraint": null, "gamma_constraint": null}, "inbound_nodes": [[["conv2d_823", 0, 0, {}]]]}, {"name": "batch_normalization_827", "class_name": "BatchNormalization", "config": {"name": "batch_normalization_827", "trainable": false, "axis": 3, "momentum": 0.99, "epsilon": 0.001, "center": true, "scale": false, "beta_initializer": {"class_name": "Zeros", "config": {}}, "gamma_initializer": {"class_name": "Ones", "config": {}}, "moving_mean_initializer": {"class_name": "Zeros", "config": {}}, "moving_variance_initializer": {"class_name": "Ones", "config": {}}, "beta_regularizer": null, "gamma_regularizer": null, "beta_constraint": null, "gamma_constraint": null}, "inbound_nodes": [[["conv2d_827", 0, 0, {}]]]}, {"name": "activation_823", "class_name": "Activation", "config": {"name": "activation_823", "trainable": false, "activation": "relu"}, "inbound_nodes": [[["batch_normalization_823", 0, 0, {}]]]}, {"name": "activation_827", "class_name": "Activation", "config": {"name": "activation_827", "trainable": false, "activation": "relu"}, "inbound_nodes": [[["batch_normalization_827", 0, 0, {}]]]}, {"name": "conv2d_824", "class_name": "Conv2D", "config": {"name": "conv2d_824", "trainable": false, "filters": 320, "kernel_size": [3, 3], "strides": [2, 2], "padding": "valid", "data_format": "channels_last", "dilation_rate": [1, 1], "activation": "linear", "use_bias": false, "kernel_initializer": {"class_name": "VarianceScaling", "config": {"scale": 1.0, "mode": "fan_avg", "distribution": "uniform", "seed": null}}, "bias_initializer": {"class_name": "Zeros", "config": {}}, "kernel_regularizer": null, "bias_regularizer": null, "activity_regularizer": null, "kernel_constraint": null, "bias_constraint": null}, "inbound_nodes": [[["activation_823", 0, 0, {}]]]}, {"name": "conv2d_828", "class_name": "Conv2D", "config": {"name": "conv2d_828", "trainable": false, "filters": 192, "kernel_size": [3, 3], "strides": [2, 2], "padding": "valid", "data_format": "channels_last", "dilation_rate": [1, 1], "activation": "linear", "use_bias": false, "kernel_initializer": {"class_name": "VarianceScaling", "config": {"scale": 1.0, "mode": "fan_avg", "distribution": "uniform", "seed": null}}, "bias_initializer": {"class_name": "Zeros", "config": {}}, "kernel_regularizer": null, "bias_regularizer": null, "activity_regularizer": null, "kernel_constraint": null, "bias_constraint": null}, "inbound_nodes": [[["activation_827", 0, 0, {}]]]}, {"name": "batch_normalization_824", "class_name": "BatchNormalization", "config": {"name": "batch_normalization_824", "trainable": false, "axis": 3, "momentum": 0.99, "epsilon": 0.001, "center": true, "scale": false, "beta_initializer": {"class_name": "Zeros", "config": {}}, "gamma_initializer": {"class_name": "Ones", "config": {}}, "moving_mean_initializer": {"class_name": "Zeros", "config": {}}, "moving_variance_initializer": {"class_name": "Ones", "config": {}}, "beta_regularizer": null, "gamma_regularizer": null, "beta_constraint": null, "gamma_constraint": null}, "inbound_nodes": [[["conv2d_824", 0, 0, {}]]]}, {"name": "batch_normalization_828", "class_name": "BatchNormalization", "config": {"name": "batch_normalization_828", "trainable": false, "axis": 3, "momentum": 0.99, "epsilon": 0.001, "center": true, "scale": false, "beta_initializer": {"class_name": "Zeros", "config": {}}, "gamma_initializer": {"class_name": "Ones", "config": {}}, "moving_mean_initializer": {"class_name": "Zeros", "config": {}}, "moving_variance_initializer": {"class_name": "Ones", "config": {}}, "beta_regularizer": null, "gamma_regularizer": null, "beta_constraint": null, "gamma_constraint": null}, "inbound_nodes": [[["conv2d_828", 0, 0, {}]]]}, {"name": "activation_824", "class_name": "Activation", "config": {"name": "activation_824", "trainable": false, "activation": "relu"}, "inbound_nodes": [[["batch_normalization_824", 0, 0, {}]]]}, {"name": "activation_828", "class_name": "Activation", "config": {"name": "activation_828", "trainable": false, "activation": "relu"}, "inbound_nodes": [[["batch_normalization_828", 0, 0, {}]]]}, {"name": "max_pooling2d_36", "class_name": "MaxPooling2D", "config": {"name": "max_pooling2d_36", "trainable": false, "pool_size": [3, 3], "padding": "valid", "strides": [2, 2], "data_format": "channels_last"}, "inbound_nodes": [[["mixed7", 0, 0, {}]]]}, {"name": "mixed8", "class_name": "Concatenate", "config": {"name": "mixed8", "trainable": false, "axis": 3}, "inbound_nodes": [[["activation_824", 0, 0, {}], ["activation_828", 0, 0, {}], ["max_pooling2d_36", 0, 0, {}]]]}, {"name": "conv2d_833", "class_name": "Conv2D", "config": {"name": "conv2d_833", "trainable": false, "filters": 448, "kernel_size": [1, 1], "strides": [1, 1], "padding": "same", "data_format": "channels_last", "dilation_rate": [1, 1], "activation": "linear", "use_bias": false, "kernel_initializer": {"class_name": "VarianceScaling", "config": {"scale": 1.0, "mode": "fan_avg", "distribution": "uniform", "seed": null}}, "bias_initializer": {"class_name": "Zeros", "config": {}}, "kernel_regularizer": null, "bias_regularizer": null, "activity_regularizer": null, "kernel_constraint": null, "bias_constraint": null}, "inbound_nodes": [[["mixed8", 0, 0, {}]]]}, {"name": "batch_normalization_833", "class_name": "BatchNormalization", "config": {"name": "batch_normalization_833", "trainable": false, "axis": 3, "momentum": 0.99, "epsilon": 0.001, "center": true, "scale": false, "beta_initializer": {"class_name": "Zeros", "config": {}}, "gamma_initializer": {"class_name": "Ones", "config": {}}, "moving_mean_initializer": {"class_name": "Zeros", "config": {}}, "moving_variance_initializer": {"class_name": "Ones", "config": {}}, "beta_regularizer": null, "gamma_regularizer": null, "beta_constraint": null, "gamma_constraint": null}, "inbound_nodes": [[["conv2d_833", 0, 0, {}]]]}, {"name": "activation_833", "class_name": "Activation", "config": {"name": "activation_833", "trainable": false, "activation": "relu"}, "inbound_nodes": [[["batch_normalization_833", 0, 0, {}]]]}, {"name": "conv2d_830", "class_name": "Conv2D", "config": {"name": "conv2d_830", "trainable": false, "filters": 384, "kernel_size": [1, 1], "strides": [1, 1], "padding": "same", "data_format": "channels_last", "dilation_rate": [1, 1], "activation": "linear", "use_bias": false, "kernel_initializer": {"class_name": "VarianceScaling", "config": {"scale": 1.0, "mode": "fan_avg", "distribution": "uniform", "seed": null}}, "bias_initializer": {"class_name": "Zeros", "config": {}}, "kernel_regularizer": null, "bias_regularizer": null, "activity_regularizer": null, "kernel_constraint": null, "bias_constraint": null}, "inbound_nodes": [[["mixed8", 0, 0, {}]]]}, {"name": "conv2d_834", "class_name": "Conv2D", "config": {"name": "conv2d_834", "trainable": false, "filters": 384, "kernel_size": [3, 3], "strides": [1, 1], "padding": "same", "data_format": "channels_last", "dilation_rate": [1, 1], "activation": "linear", "use_bias": false, "kernel_initializer": {"class_name": "VarianceScaling", "config": {"scale": 1.0, "mode": "fan_avg", "distribution": "uniform", "seed": null}}, "bias_initializer": {"class_name": "Zeros", "config": {}}, "kernel_regularizer": null, "bias_regularizer": null, "activity_regularizer": null, "kernel_constraint": null, "bias_constraint": null}, "inbound_nodes": [[["activation_833", 0, 0, {}]]]}, {"name": "batch_normalization_830", "class_name": "BatchNormalization", "config": {"name": "batch_normalization_830", "trainable": false, "axis": 3, "momentum": 0.99, "epsilon": 0.001, "center": true, "scale": false, "beta_initializer": {"class_name": "Zeros", "config": {}}, "gamma_initializer": {"class_name": "Ones", "config": {}}, "moving_mean_initializer": {"class_name": "Zeros", "config": {}}, "moving_variance_initializer": {"class_name": "Ones", "config": {}}, "beta_regularizer": null, "gamma_regularizer": null, "beta_constraint": null, "gamma_constraint": null}, "inbound_nodes": [[["conv2d_830", 0, 0, {}]]]}, {"name": "batch_normalization_834", "class_name": "BatchNormalization", "config": {"name": "batch_normalization_834", "trainable": false, "axis": 3, "momentum": 0.99, "epsilon": 0.001, "center": true, "scale": false, "beta_initializer": {"class_name": "Zeros", "config": {}}, "gamma_initializer": {"class_name": "Ones", "config": {}}, "moving_mean_initializer": {"class_name": "Zeros", "config": {}}, "moving_variance_initializer": {"class_name": "Ones", "config": {}}, "beta_regularizer": null, "gamma_regularizer": null, "beta_constraint": null, "gamma_constraint": null}, "inbound_nodes": [[["conv2d_834", 0, 0, {}]]]}, {"name": "activation_830", "class_name": "Activation", "config": {"name": "activation_830", "trainable": false, "activation": "relu"}, "inbound_nodes": [[["batch_normalization_830", 0, 0, {}]]]}, {"name": "activation_834", "class_name": "Activation", "config": {"name": "activation_834", "trainable": false, "activation": "relu"}, "inbound_nodes": [[["batch_normalization_834", 0, 0, {}]]]}, {"name": "conv2d_831", "class_name": "Conv2D", "config": {"name": "conv2d_831", "trainable": false, "filters": 384, "kernel_size": [1, 3], "strides": [1, 1], "padding": "same", "data_format": "channels_last", "dilation_rate": [1, 1], "activation": "linear", "use_bias": false, "kernel_initializer": {"class_name": "VarianceScaling", "config": {"scale": 1.0, "mode": "fan_avg", "distribution": "uniform", "seed": null}}, "bias_initializer": {"class_name": "Zeros", "config": {}}, "kernel_regularizer": null, "bias_regularizer": null, "activity_regularizer": null, "kernel_constraint": null, "bias_constraint": null}, "inbound_nodes": [[["activation_830", 0, 0, {}]]]}, {"name": "conv2d_832", "class_name": "Conv2D", "config": {"name": "conv2d_832", "trainable": false, "filters": 384, "kernel_size": [3, 1], "strides": [1, 1], "padding": "same", "data_format": "channels_last", "dilation_rate": [1, 1], "activation": "linear", "use_bias": false, "kernel_initializer": {"class_name": "VarianceScaling", "config": {"scale": 1.0, "mode": "fan_avg", "distribution": "uniform", "seed": null}}, "bias_initializer": {"class_name": "Zeros", "config": {}}, "kernel_regularizer": null, "bias_regularizer": null, "activity_regularizer": null, "kernel_constraint": null, "bias_constraint": null}, "inbound_nodes": [[["activation_830", 0, 0, {}]]]}, {"name": "conv2d_835", "class_name": "Conv2D", "config": {"name": "conv2d_835", "trainable": false, "filters": 384, "kernel_size": [1, 3], "strides": [1, 1], "padding": "same", "data_format": "channels_last", "dilation_rate": [1, 1], "activation": "linear", "use_bias": false, "kernel_initializer": {"class_name": "VarianceScaling", "config": {"scale": 1.0, "mode": "fan_avg", "distribution": "uniform", "seed": null}}, "bias_initializer": {"class_name": "Zeros", "config": {}}, "kernel_regularizer": null, "bias_regularizer": null, "activity_regularizer": null, "kernel_constraint": null, "bias_constraint": null}, "inbound_nodes": [[["activation_834", 0, 0, {}]]]}, {"name": "conv2d_836", "class_name": "Conv2D", "config": {"name": "conv2d_836", "trainable": false, "filters": 384, "kernel_size": [3, 1], "strides": [1, 1], "padding": "same", "data_format": "channels_last", "dilation_rate": [1, 1], "activation": "linear", "use_bias": false, "kernel_initializer": {"class_name": "VarianceScaling", "config": {"scale": 1.0, "mode": "fan_avg", "distribution": "uniform", "seed": null}}, "bias_initializer": {"class_name": "Zeros", "config": {}}, "kernel_regularizer": null, "bias_regularizer": null, "activity_regularizer": null, "kernel_constraint": null, "bias_constraint": null}, "inbound_nodes": [[["activation_834", 0, 0, {}]]]}, {"name": "average_pooling2d_80", "class_name": "AveragePooling2D", "config": {"name": "average_pooling2d_80", "trainable": false, "pool_size": [3, 3], "padding": "same", "strides": [1, 1], "data_format": "channels_last"}, "inbound_nodes": [[["mixed8", 0, 0, {}]]]}, {"name": "conv2d_829", "class_name": "Conv2D", "config": {"name": "conv2d_829", "trainable": false, "filters": 320, "kernel_size": [1, 1], "strides": [1, 1], "padding": "same", "data_format": "channels_last", "dilation_rate": [1, 1], "activation": "linear", "use_bias": false, "kernel_initializer": {"class_name": "VarianceScaling", "config": {"scale": 1.0, "mode": "fan_avg", "distribution": "uniform", "seed": null}}, "bias_initializer": {"class_name": "Zeros", "config": {}}, "kernel_regularizer": null, "bias_regularizer": null, "activity_regularizer": null, "kernel_constraint": null, "bias_constraint": null}, "inbound_nodes": [[["mixed8", 0, 0, {}]]]}, {"name": "batch_normalization_831", "class_name": "BatchNormalization", "config": {"name": "batch_normalization_831", "trainable": false, "axis": 3, "momentum": 0.99, "epsilon": 0.001, "center": true, "scale": false, "beta_initializer": {"class_name": "Zeros", "config": {}}, "gamma_initializer": {"class_name": "Ones", "config": {}}, "moving_mean_initializer": {"class_name": "Zeros", "config": {}}, "moving_variance_initializer": {"class_name": "Ones", "config": {}}, "beta_regularizer": null, "gamma_regularizer": null, "beta_constraint": null, "gamma_constraint": null}, "inbound_nodes": [[["conv2d_831", 0, 0, {}]]]}, {"name": "batch_normalization_832", "class_name": "BatchNormalization", "config": {"name": "batch_normalization_832", "trainable": false, "axis": 3, "momentum": 0.99, "epsilon": 0.001, "center": true, "scale": false, "beta_initializer": {"class_name": "Zeros", "config": {}}, "gamma_initializer": {"class_name": "Ones", "config": {}}, "moving_mean_initializer": {"class_name": "Zeros", "config": {}}, "moving_variance_initializer": {"class_name": "Ones", "config": {}}, "beta_regularizer": null, "gamma_regularizer": null, "beta_constraint": null, "gamma_constraint": null}, "inbound_nodes": [[["conv2d_832", 0, 0, {}]]]}, {"name": "batch_normalization_835", "class_name": "BatchNormalization", "config": {"name": "batch_normalization_835", "trainable": false, "axis": 3, "momentum": 0.99, "epsilon": 0.001, "center": true, "scale": false, "beta_initializer": {"class_name": "Zeros", "config": {}}, "gamma_initializer": {"class_name": "Ones", "config": {}}, "moving_mean_initializer": {"class_name": "Zeros", "config": {}}, "moving_variance_initializer": {"class_name": "Ones", "config": {}}, "beta_regularizer": null, "gamma_regularizer": null, "beta_constraint": null, "gamma_constraint": null}, "inbound_nodes": [[["conv2d_835", 0, 0, {}]]]}, {"name": "batch_normalization_836", "class_name": "BatchNormalization", "config": {"name": "batch_normalization_836", "trainable": false, "axis": 3, "momentum": 0.99, "epsilon": 0.001, "center": true, "scale": false, "beta_initializer": {"class_name": "Zeros", "config": {}}, "gamma_initializer": {"class_name": "Ones", "config": {}}, "moving_mean_initializer": {"class_name": "Zeros", "config": {}}, "moving_variance_initializer": {"class_name": "Ones", "config": {}}, "beta_regularizer": null, "gamma_regularizer": null, "beta_constraint": null, "gamma_constraint": null}, "inbound_nodes": [[["conv2d_836", 0, 0, {}]]]}, {"name": "conv2d_837", "class_name": "Conv2D", "config": {"name": "conv2d_837", "trainable": false, "filters": 192, "kernel_size": [1, 1], "strides": [1, 1], "padding": "same", "data_format": "channels_last", "dilation_rate": [1, 1], "activation": "linear", "use_bias": false, "kernel_initializer": {"class_name": "VarianceScaling", "config": {"scale": 1.0, "mode": "fan_avg", "distribution": "uniform", "seed": null}}, "bias_initializer": {"class_name": "Zeros", "config": {}}, "kernel_regularizer": null, "bias_regularizer": null, "activity_regularizer": null, "kernel_constraint": null, "bias_constraint": null}, "inbound_nodes": [[["average_pooling2d_80", 0, 0, {}]]]}, {"name": "batch_normalization_829", "class_name": "BatchNormalization", "config": {"name": "batch_normalization_829", "trainable": false, "axis": 3, "momentum": 0.99, "epsilon": 0.001, "center": true, "scale": false, "beta_initializer": {"class_name": "Zeros", "config": {}}, "gamma_initializer": {"class_name": "Ones", "config": {}}, "moving_mean_initializer": {"class_name": "Zeros", "config": {}}, "moving_variance_initializer": {"class_name": "Ones", "config": {}}, "beta_regularizer": null, "gamma_regularizer": null, "beta_constraint": null, "gamma_constraint": null}, "inbound_nodes": [[["conv2d_829", 0, 0, {}]]]}, {"name": "activation_831", "class_name": "Activation", "config": {"name": "activation_831", "trainable": false, "activation": "relu"}, "inbound_nodes": [[["batch_normalization_831", 0, 0, {}]]]}, {"name": "activation_832", "class_name": "Activation", "config": {"name": "activation_832", "trainable": false, "activation": "relu"}, "inbound_nodes": [[["batch_normalization_832", 0, 0, {}]]]}, {"name": "activation_835", "class_name": "Activation", "config": {"name": "activation_835", "trainable": false, "activation": "relu"}, "inbound_nodes": [[["batch_normalization_835", 0, 0, {}]]]}, {"name": "activation_836", "class_name": "Activation", "config": {"name": "activation_836", "trainable": false, "activation": "relu"}, "inbound_nodes": [[["batch_normalization_836", 0, 0, {}]]]}, {"name": "batch_normalization_837", "class_name": "BatchNormalization", "config": {"name": "batch_normalization_837", "trainable": false, "axis": 3, "momentum": 0.99, "epsilon": 0.001, "center": true, "scale": false, "beta_initializer": {"class_name": "Zeros", "config": {}}, "gamma_initializer": {"class_name": "Ones", "config": {}}, "moving_mean_initializer": {"class_name": "Zeros", "config": {}}, "moving_variance_initializer": {"class_name": "Ones", "config": {}}, "beta_regularizer": null, "gamma_regularizer": null, "beta_constraint": null, "gamma_constraint": null}, "inbound_nodes": [[["conv2d_837", 0, 0, {}]]]}, {"name": "activation_829", "class_name": "Activation", "config": {"name": "activation_829", "trainable": false, "activation": "relu"}, "inbound_nodes": [[["batch_normalization_829", 0, 0, {}]]]}, {"name": "mixed9_0", "class_name": "Concatenate", "config": {"name": "mixed9_0", "trainable": false, "axis": 3}, "inbound_nodes": [[["activation_831", 0, 0, {}], ["activation_832", 0, 0, {}]]]}, {"name": "concatenate_27", "class_name": "Concatenate", "config": {"name": "concatenate_27", "trainable": false, "axis": 3}, "inbound_nodes": [[["activation_835", 0, 0, {}], ["activation_836", 0, 0, {}]]]}, {"name": "activation_837", "class_name": "Activation", "config": {"name": "activation_837", "trainable": false, "activation": "relu"}, "inbound_nodes": [[["batch_normalization_837", 0, 0, {}]]]}, {"name": "mixed9", "class_name": "Concatenate", "config": {"name": "mixed9", "trainable": false, "axis": 3}, "inbound_nodes": [[["activation_829", 0, 0, {}], ["mixed9_0", 0, 0, {}], ["concatenate_27", 0, 0, {}], ["activation_837", 0, 0, {}]]]}, {"name": "conv2d_842", "class_name": "Conv2D", "config": {"name": "conv2d_842", "trainable": false, "filters": 448, "kernel_size": [1, 1], "strides": [1, 1], "padding": "same", "data_format": "channels_last", "dilation_rate": [1, 1], "activation": "linear", "use_bias": false, "kernel_initializer": {"class_name": "VarianceScaling", "config": {"scale": 1.0, "mode": "fan_avg", "distribution": "uniform", "seed": null}}, "bias_initializer": {"class_name": "Zeros", "config": {}}, "kernel_regularizer": null, "bias_regularizer": null, "activity_regularizer": null, "kernel_constraint": null, "bias_constraint": null}, "inbound_nodes": [[["mixed9", 0, 0, {}]]]}, {"name": "batch_normalization_842", "class_name": "BatchNormalization", "config": {"name": "batch_normalization_842", "trainable": false, "axis": 3, "momentum": 0.99, "epsilon": 0.001, "center": true, "scale": false, "beta_initializer": {"class_name": "Zeros", "config": {}}, "gamma_initializer": {"class_name": "Ones", "config": {}}, "moving_mean_initializer": {"class_name": "Zeros", "config": {}}, "moving_variance_initializer": {"class_name": "Ones", "config": {}}, "beta_regularizer": null, "gamma_regularizer": null, "beta_constraint": null, "gamma_constraint": null}, "inbound_nodes": [[["conv2d_842", 0, 0, {}]]]}, {"name": "activation_842", "class_name": "Activation", "config": {"name": "activation_842", "trainable": false, "activation": "relu"}, "inbound_nodes": [[["batch_normalization_842", 0, 0, {}]]]}, {"name": "conv2d_839", "class_name": "Conv2D", "config": {"name": "conv2d_839", "trainable": false, "filters": 384, "kernel_size": [1, 1], "strides": [1, 1], "padding": "same", "data_format": "channels_last", "dilation_rate": [1, 1], "activation": "linear", "use_bias": false, "kernel_initializer": {"class_name": "VarianceScaling", "config": {"scale": 1.0, "mode": "fan_avg", "distribution": "uniform", "seed": null}}, "bias_initializer": {"class_name": "Zeros", "config": {}}, "kernel_regularizer": null, "bias_regularizer": null, "activity_regularizer": null, "kernel_constraint": null, "bias_constraint": null}, "inbound_nodes": [[["mixed9", 0, 0, {}]]]}, {"name": "conv2d_843", "class_name": "Conv2D", "config": {"name": "conv2d_843", "trainable": false, "filters": 384, "kernel_size": [3, 3], "strides": [1, 1], "padding": "same", "data_format": "channels_last", "dilation_rate": [1, 1], "activation": "linear", "use_bias": false, "kernel_initializer": {"class_name": "VarianceScaling", "config": {"scale": 1.0, "mode": "fan_avg", "distribution": "uniform", "seed": null}}, "bias_initializer": {"class_name": "Zeros", "config": {}}, "kernel_regularizer": null, "bias_regularizer": null, "activity_regularizer": null, "kernel_constraint": null, "bias_constraint": null}, "inbound_nodes": [[["activation_842", 0, 0, {}]]]}, {"name": "batch_normalization_839", "class_name": "BatchNormalization", "config": {"name": "batch_normalization_839", "trainable": false, "axis": 3, "momentum": 0.99, "epsilon": 0.001, "center": true, "scale": false, "beta_initializer": {"class_name": "Zeros", "config": {}}, "gamma_initializer": {"class_name": "Ones", "config": {}}, "moving_mean_initializer": {"class_name": "Zeros", "config": {}}, "moving_variance_initializer": {"class_name": "Ones", "config": {}}, "beta_regularizer": null, "gamma_regularizer": null, "beta_constraint": null, "gamma_constraint": null}, "inbound_nodes": [[["conv2d_839", 0, 0, {}]]]}, {"name": "batch_normalization_843", "class_name": "BatchNormalization", "config": {"name": "batch_normalization_843", "trainable": false, "axis": 3, "momentum": 0.99, "epsilon": 0.001, "center": true, "scale": false, "beta_initializer": {"class_name": "Zeros", "config": {}}, "gamma_initializer": {"class_name": "Ones", "config": {}}, "moving_mean_initializer": {"class_name": "Zeros", "config": {}}, "moving_variance_initializer": {"class_name": "Ones", "config": {}}, "beta_regularizer": null, "gamma_regularizer": null, "beta_constraint": null, "gamma_constraint": null}, "inbound_nodes": [[["conv2d_843", 0, 0, {}]]]}, {"name": "activation_839", "class_name": "Activation", "config": {"name": "activation_839", "trainable": false, "activation": "relu"}, "inbound_nodes": [[["batch_normalization_839", 0, 0, {}]]]}, {"name": "activation_843", "class_name": "Activation", "config": {"name": "activation_843", "trainable": false, "activation": "relu"}, "inbound_nodes": [[["batch_normalization_843", 0, 0, {}]]]}, {"name": "conv2d_840", "class_name": "Conv2D", "config": {"name": "conv2d_840", "trainable": false, "filters": 384, "kernel_size": [1, 3], "strides": [1, 1], "padding": "same", "data_format": "channels_last", "dilation_rate": [1, 1], "activation": "linear", "use_bias": false, "kernel_initializer": {"class_name": "VarianceScaling", "config": {"scale": 1.0, "mode": "fan_avg", "distribution": "uniform", "seed": null}}, "bias_initializer": {"class_name": "Zeros", "config": {}}, "kernel_regularizer": null, "bias_regularizer": null, "activity_regularizer": null, "kernel_constraint": null, "bias_constraint": null}, "inbound_nodes": [[["activation_839", 0, 0, {}]]]}, {"name": "conv2d_841", "class_name": "Conv2D", "config": {"name": "conv2d_841", "trainable": false, "filters": 384, "kernel_size": [3, 1], "strides": [1, 1], "padding": "same", "data_format": "channels_last", "dilation_rate": [1, 1], "activation": "linear", "use_bias": false, "kernel_initializer": {"class_name": "VarianceScaling", "config": {"scale": 1.0, "mode": "fan_avg", "distribution": "uniform", "seed": null}}, "bias_initializer": {"class_name": "Zeros", "config": {}}, "kernel_regularizer": null, "bias_regularizer": null, "activity_regularizer": null, "kernel_constraint": null, "bias_constraint": null}, "inbound_nodes": [[["activation_839", 0, 0, {}]]]}, {"name": "conv2d_844", "class_name": "Conv2D", "config": {"name": "conv2d_844", "trainable": false, "filters": 384, "kernel_size": [1, 3], "strides": [1, 1], "padding": "same", "data_format": "channels_last", "dilation_rate": [1, 1], "activation": "linear", "use_bias": false, "kernel_initializer": {"class_name": "VarianceScaling", "config": {"scale": 1.0, "mode": "fan_avg", "distribution": "uniform", "seed": null}}, "bias_initializer": {"class_name": "Zeros", "config": {}}, "kernel_regularizer": null, "bias_regularizer": null, "activity_regularizer": null, "kernel_constraint": null, "bias_constraint": null}, "inbound_nodes": [[["activation_843", 0, 0, {}]]]}, {"name": "conv2d_845", "class_name": "Conv2D", "config": {"name": "conv2d_845", "trainable": false, "filters": 384, "kernel_size": [3, 1], "strides": [1, 1], "padding": "same", "data_format": "channels_last", "dilation_rate": [1, 1], "activation": "linear", "use_bias": false, "kernel_initializer": {"class_name": "VarianceScaling", "config": {"scale": 1.0, "mode": "fan_avg", "distribution": "uniform", "seed": null}}, "bias_initializer": {"class_name": "Zeros", "config": {}}, "kernel_regularizer": null, "bias_regularizer": null, "activity_regularizer": null, "kernel_constraint": null, "bias_constraint": null}, "inbound_nodes": [[["activation_843", 0, 0, {}]]]}, {"name": "average_pooling2d_81", "class_name": "AveragePooling2D", "config": {"name": "average_pooling2d_81", "trainable": false, "pool_size": [3, 3], "padding": "same", "strides": [1, 1], "data_format": "channels_last"}, "inbound_nodes": [[["mixed9", 0, 0, {}]]]}, {"name": "conv2d_838", "class_name": "Conv2D", "config": {"name": "conv2d_838", "trainable": false, "filters": 320, "kernel_size": [1, 1], "strides": [1, 1], "padding": "same", "data_format": "channels_last", "dilation_rate": [1, 1], "activation": "linear", "use_bias": false, "kernel_initializer": {"class_name": "VarianceScaling", "config": {"scale": 1.0, "mode": "fan_avg", "distribution": "uniform", "seed": null}}, "bias_initializer": {"class_name": "Zeros", "config": {}}, "kernel_regularizer": null, "bias_regularizer": null, "activity_regularizer": null, "kernel_constraint": null, "bias_constraint": null}, "inbound_nodes": [[["mixed9", 0, 0, {}]]]}, {"name": "batch_normalization_840", "class_name": "BatchNormalization", "config": {"name": "batch_normalization_840", "trainable": false, "axis": 3, "momentum": 0.99, "epsilon": 0.001, "center": true, "scale": false, "beta_initializer": {"class_name": "Zeros", "config": {}}, "gamma_initializer": {"class_name": "Ones", "config": {}}, "moving_mean_initializer": {"class_name": "Zeros", "config": {}}, "moving_variance_initializer": {"class_name": "Ones", "config": {}}, "beta_regularizer": null, "gamma_regularizer": null, "beta_constraint": null, "gamma_constraint": null}, "inbound_nodes": [[["conv2d_840", 0, 0, {}]]]}, {"name": "batch_normalization_841", "class_name": "BatchNormalization", "config": {"name": "batch_normalization_841", "trainable": false, "axis": 3, "momentum": 0.99, "epsilon": 0.001, "center": true, "scale": false, "beta_initializer": {"class_name": "Zeros", "config": {}}, "gamma_initializer": {"class_name": "Ones", "config": {}}, "moving_mean_initializer": {"class_name": "Zeros", "config": {}}, "moving_variance_initializer": {"class_name": "Ones", "config": {}}, "beta_regularizer": null, "gamma_regularizer": null, "beta_constraint": null, "gamma_constraint": null}, "inbound_nodes": [[["conv2d_841", 0, 0, {}]]]}, {"name": "batch_normalization_844", "class_name": "BatchNormalization", "config": {"name": "batch_normalization_844", "trainable": false, "axis": 3, "momentum": 0.99, "epsilon": 0.001, "center": true, "scale": false, "beta_initializer": {"class_name": "Zeros", "config": {}}, "gamma_initializer": {"class_name": "Ones", "config": {}}, "moving_mean_initializer": {"class_name": "Zeros", "config": {}}, "moving_variance_initializer": {"class_name": "Ones", "config": {}}, "beta_regularizer": null, "gamma_regularizer": null, "beta_constraint": null, "gamma_constraint": null}, "inbound_nodes": [[["conv2d_844", 0, 0, {}]]]}, {"name": "batch_normalization_845", "class_name": "BatchNormalization", "config": {"name": "batch_normalization_845", "trainable": false, "axis": 3, "momentum": 0.99, "epsilon": 0.001, "center": true, "scale": false, "beta_initializer": {"class_name": "Zeros", "config": {}}, "gamma_initializer": {"class_name": "Ones", "config": {}}, "moving_mean_initializer": {"class_name": "Zeros", "config": {}}, "moving_variance_initializer": {"class_name": "Ones", "config": {}}, "beta_regularizer": null, "gamma_regularizer": null, "beta_constraint": null, "gamma_constraint": null}, "inbound_nodes": [[["conv2d_845", 0, 0, {}]]]}, {"name": "conv2d_846", "class_name": "Conv2D", "config": {"name": "conv2d_846", "trainable": false, "filters": 192, "kernel_size": [1, 1], "strides": [1, 1], "padding": "same", "data_format": "channels_last", "dilation_rate": [1, 1], "activation": "linear", "use_bias": false, "kernel_initializer": {"class_name": "VarianceScaling", "config": {"scale": 1.0, "mode": "fan_avg", "distribution": "uniform", "seed": null}}, "bias_initializer": {"class_name": "Zeros", "config": {}}, "kernel_regularizer": null, "bias_regularizer": null, "activity_regularizer": null, "kernel_constraint": null, "bias_constraint": null}, "inbound_nodes": [[["average_pooling2d_81", 0, 0, {}]]]}, {"name": "batch_normalization_838", "class_name": "BatchNormalization", "config": {"name": "batch_normalization_838", "trainable": false, "axis": 3, "momentum": 0.99, "epsilon": 0.001, "center": true, "scale": false, "beta_initializer": {"class_name": "Zeros", "config": {}}, "gamma_initializer": {"class_name": "Ones", "config": {}}, "moving_mean_initializer": {"class_name": "Zeros", "config": {}}, "moving_variance_initializer": {"class_name": "Ones", "config": {}}, "beta_regularizer": null, "gamma_regularizer": null, "beta_constraint": null, "gamma_constraint": null}, "inbound_nodes": [[["conv2d_838", 0, 0, {}]]]}, {"name": "activation_840", "class_name": "Activation", "config": {"name": "activation_840", "trainable": false, "activation": "relu"}, "inbound_nodes": [[["batch_normalization_840", 0, 0, {}]]]}, {"name": "activation_841", "class_name": "Activation", "config": {"name": "activation_841", "trainable": false, "activation": "relu"}, "inbound_nodes": [[["batch_normalization_841", 0, 0, {}]]]}, {"name": "activation_844", "class_name": "Activation", "config": {"name": "activation_844", "trainable": false, "activation": "relu"}, "inbound_nodes": [[["batch_normalization_844", 0, 0, {}]]]}, {"name": "activation_845", "class_name": "Activation", "config": {"name": "activation_845", "trainable": false, "activation": "relu"}, "inbound_nodes": [[["batch_normalization_845", 0, 0, {}]]]}, {"name": "batch_normalization_846", "class_name": "BatchNormalization", "config": {"name": "batch_normalization_846", "trainable": false, "axis": 3, "momentum": 0.99, "epsilon": 0.001, "center": true, "scale": false, "beta_initializer": {"class_name": "Zeros", "config": {}}, "gamma_initializer": {"class_name": "Ones", "config": {}}, "moving_mean_initializer": {"class_name": "Zeros", "config": {}}, "moving_variance_initializer": {"class_name": "Ones", "config": {}}, "beta_regularizer": null, "gamma_regularizer": null, "beta_constraint": null, "gamma_constraint": null}, "inbound_nodes": [[["conv2d_846", 0, 0, {}]]]}, {"name": "activation_838", "class_name": "Activation", "config": {"name": "activation_838", "trainable": false, "activation": "relu"}, "inbound_nodes": [[["batch_normalization_838", 0, 0, {}]]]}, {"name": "mixed9_1", "class_name": "Concatenate", "config": {"name": "mixed9_1", "trainable": false, "axis": 3}, "inbound_nodes": [[["activation_840", 0, 0, {}], ["activation_841", 0, 0, {}]]]}, {"name": "concatenate_28", "class_name": "Concatenate", "config": {"name": "concatenate_28", "trainable": false, "axis": 3}, "inbound_nodes": [[["activation_844", 0, 0, {}], ["activation_845", 0, 0, {}]]]}, {"name": "activation_846", "class_name": "Activation", "config": {"name": "activation_846", "trainable": false, "activation": "relu"}, "inbound_nodes": [[["batch_normalization_846", 0, 0, {}]]]}, {"name": "mixed10", "class_name": "Concatenate", "config": {"name": "mixed10", "trainable": false, "axis": 3}, "inbound_nodes": [[["activation_838", 0, 0, {}], ["mixed9_1", 0, 0, {}], ["concatenate_28", 0, 0, {}], ["activation_846", 0, 0, {}]]]}, {"name": "avg_pool", "class_name": "GlobalAveragePooling2D", "config": {"name": "avg_pool", "trainable": false, "data_format": "channels_last"}, "inbound_nodes": [[["mixed10", 0, 0, {}]]]}, {"name": "predictions", "class_name": "Dense", "config": {"name": "predictions", "trainable": true, "units": 1000, "activation": "sigmoid", "use_bias": true, "kernel_initializer": {"class_name": "VarianceScaling", "config": {"scale": 1.0, "mode": "fan_avg", "distribution": "uniform", "seed": null}}, "bias_initializer": {"class_name": "Zeros", "config": {}}, "kernel_regularizer": null, "bias_regularizer": null, "activity_regularizer": null, "kernel_constraint": null, "bias_constraint": null}, "inbound_nodes": [[["avg_pool", 0, 0, {}]]]}], "input_layers": [["input_29", 0, 0]], "output_layers": [["predictions", 0, 0]]}, "inbound_nodes": [[["input_30", 0, 0, {}]], [["input_31", 0, 0, {}]]]}, {"name": "lambda_7", "class_name": "Lambda", "config": {"name": "lambda_7", "trainable": true, "function": ["4wEAAAAAAAAAAQAAAAQAAABDAAAAcxYAAAB0AGoBfABkARkAfABkAhkAGACDAVMAKQNO6QAAAADp\nAQAAACkC2gFL2gNhYnMpAdoHdGVuc29yc6kAcgYAAAD6IDxpcHl0aG9uLWlucHV0LTEyNy0xZTY2\nYjNlNzJiMTM+2gg8bGFtYmRhPgoAAABzAAAAAA==\n", null, null], "function_type": "lambda", "output_shape": null, "output_shape_type": "raw", "arguments": {}}, "inbound_nodes": [[["inception_v3", 1, 0, {}], ["inception_v3", 2, 0, {}]]]}, {"name": "dense_8", "class_name": "Dense", "config": {"name": "dense_8", "trainable": true, "units": 1, "activation": "sigmoid", "use_bias": true, "kernel_initializer": {"class_name": "VarianceScaling", "config": {"scale": 1.0, "mode": "fan_avg", "distribution": "uniform", "seed": null}}, "bias_initializer": {"class_name": "Zeros", "config": {}}, "kernel_regularizer": null, "bias_regularizer": null, "activity_regularizer": null, "kernel_constraint": null, "bias_constraint": null}, "inbound_nodes": [[["lambda_7", 0, 0, {}]]]}], "input_layers": [["input_30", 0, 0], ["input_31", 0, 0]], "output_layers": [["dense_8", 0, 0]]}, "keras_version": "2.2.4", "backend": "tensorflow"}